<?xml version="1.0"?>
<net name="Model3" version="11">
	<layers>
		<layer id="1" name="decoder_input_ids" type="Parameter" version="opset1">
			<data shape="?,?" element_type="i64" />
			<output>
				<port id="0" precision="I64" names="input_ids">
					<dim>-1</dim>
					<dim>-1</dim>
				</port>
			</output>
		</layer>
		<layer id="0" name="Parameter_36916" type="Parameter" version="opset1">
			<data shape="?,?,512" element_type="f32" />
			<output>
				<port id="0" precision="FP32" names="encoder_hidden_states">
					<dim>-1</dim>
					<dim>-1</dim>
					<dim>512</dim>
				</port>
			</output>
		</layer>
		<layer id="2" name="Constant_22926" type="Const" version="opset1">
			<data element_type="f32" shape="512, 512" offset="0" size="1048576" />
			<output>
				<port id="0" precision="FP32" names="1003,weight.193">
					<dim>512</dim>
					<dim>512</dim>
				</port>
			</output>
		</layer>
		<layer id="3" name="__module.model.model.decoder.layers.5.encoder_attn.v_proj/aten::linear/MatMul" type="MatMul" version="opset1">
			<data transpose_a="false" transpose_b="true" />
			<input>
				<port id="0" precision="FP32">
					<dim>-1</dim>
					<dim>-1</dim>
					<dim>512</dim>
				</port>
				<port id="1" precision="FP32">
					<dim>512</dim>
					<dim>512</dim>
				</port>
			</input>
			<output>
				<port id="2" precision="FP32">
					<dim>-1</dim>
					<dim>-1</dim>
					<dim>512</dim>
				</port>
			</output>
		</layer>
		<layer id="4" name="Constant_78634" type="Const" version="opset1">
			<data element_type="f32" shape="1, 1, 512" offset="1048576" size="2048" />
			<output>
				<port id="0" precision="FP32">
					<dim>1</dim>
					<dim>1</dim>
					<dim>512</dim>
				</port>
			</output>
		</layer>
		<layer id="5" name="__module.model.model.decoder.layers.5.encoder_attn.v_proj/aten::linear/Add" type="Add" version="opset1">
			<data auto_broadcast="numpy" />
			<input>
				<port id="0" precision="FP32">
					<dim>-1</dim>
					<dim>-1</dim>
					<dim>512</dim>
				</port>
				<port id="1" precision="FP32">
					<dim>1</dim>
					<dim>1</dim>
					<dim>512</dim>
				</port>
			</input>
			<output>
				<port id="2" precision="FP32" names="1004,tensor.69">
					<dim>-1</dim>
					<dim>-1</dim>
					<dim>512</dim>
				</port>
			</output>
		</layer>
		<layer id="6" name="Constant_18124" type="Const" version="opset1">
			<data element_type="f32" shape="51865, 512" offset="1050624" size="106219520" />
			<output>
				<port id="0" precision="FP32" names="89,weight.43">
					<dim>51865</dim>
					<dim>512</dim>
				</port>
			</output>
		</layer>
		<layer id="7" name="__module.model.model.decoder/prim::ListConstruct/Reshape" type="Const" version="opset1">
			<data element_type="i32" shape="1" offset="107270144" size="4" />
			<output>
				<port id="0" precision="I32">
					<dim>1</dim>
				</port>
			</output>
		</layer>
		<layer id="8" name="__module.model.model.decoder/aten::size/ShapeOf_3" type="ShapeOf" version="opset3">
			<data output_type="i32" />
			<input>
				<port id="0" precision="I64">
					<dim>-1</dim>
					<dim>-1</dim>
				</port>
			</input>
			<output>
				<port id="1" precision="I32">
					<dim>2</dim>
				</port>
			</output>
		</layer>
		<layer id="9" name="60" type="Const" version="opset1">
			<data element_type="i32" shape="" offset="107270148" size="4" />
			<output>
				<port id="0" precision="I32" names="60" />
			</output>
		</layer>
		<layer id="10" name="__module.model.model.decoder/aten::size/Constant" type="Const" version="opset1">
			<data element_type="i32" shape="" offset="107270152" size="4" />
			<output>
				<port id="0" precision="I32" />
			</output>
		</layer>
		<layer id="11" name="__module.model.model.decoder/aten::size/Gather" type="Gather" version="opset8">
			<data batch_dims="0" />
			<input>
				<port id="0" precision="I32">
					<dim>2</dim>
				</port>
				<port id="1" precision="I32" />
				<port id="2" precision="I32" />
			</input>
			<output>
				<port id="3" precision="I32" names="85,91,key_value_length" />
			</output>
		</layer>
		<layer id="12" name="Constant_148390" type="Const" version="opset1">
			<data element_type="i64" shape="1" offset="107270156" size="8" />
			<output>
				<port id="0" precision="I64">
					<dim>1</dim>
				</port>
			</output>
		</layer>
		<layer id="13" name="__module.model.model.decoder/prim::ListConstruct/Reshape_0" type="Reshape" version="opset1">
			<data special_zero="false" />
			<input>
				<port id="0" precision="I32" />
				<port id="1" precision="I64">
					<dim>1</dim>
				</port>
			</input>
			<output>
				<port id="2" precision="I32">
					<dim>1</dim>
				</port>
			</output>
		</layer>
		<layer id="14" name="__module.model.model.decoder/prim::ListConstruct/Concat" type="Concat" version="opset1">
			<data axis="0" />
			<input>
				<port id="0" precision="I32">
					<dim>1</dim>
				</port>
				<port id="1" precision="I32">
					<dim>1</dim>
				</port>
			</input>
			<output>
				<port id="2" precision="I32" names="87">
					<dim>2</dim>
				</port>
			</output>
		</layer>
		<layer id="15" name="__module.model.model.decoder/aten::view/Reshape" type="Reshape" version="opset1">
			<data special_zero="false" />
			<input>
				<port id="0" precision="I64">
					<dim>-1</dim>
					<dim>-1</dim>
				</port>
				<port id="1" precision="I32">
					<dim>2</dim>
				</port>
			</input>
			<output>
				<port id="2" precision="I64" names="88,input.1">
					<dim>-1</dim>
					<dim>-1</dim>
				</port>
			</output>
		</layer>
		<layer id="16" name="__module.model.model.decoder.embed_tokens/aten::embedding/Convert" type="Convert" version="opset1">
			<data destination_type="i32" />
			<input>
				<port id="0" precision="I64">
					<dim>-1</dim>
					<dim>-1</dim>
				</port>
			</input>
			<output>
				<port id="1" precision="I32">
					<dim>-1</dim>
					<dim>-1</dim>
				</port>
			</output>
		</layer>
		<layer id="17" name="__module.model.model.decoder.embed_tokens/aten::embedding/Constant" type="Const" version="opset1">
			<data element_type="i32" shape="" offset="107270152" size="4" />
			<output>
				<port id="0" precision="I32" />
			</output>
		</layer>
		<layer id="18" name="__module.model.model.decoder.embed_tokens/aten::embedding/Gather" type="Gather" version="opset8">
			<data batch_dims="0" />
			<input>
				<port id="0" precision="FP32">
					<dim>51865</dim>
					<dim>512</dim>
				</port>
				<port id="1" precision="I32">
					<dim>-1</dim>
					<dim>-1</dim>
				</port>
				<port id="2" precision="I32" />
			</input>
			<output>
				<port id="3" precision="FP32" names="90,inputs_embeds">
					<dim>-1</dim>
					<dim>-1</dim>
					<dim>512</dim>
				</port>
			</output>
		</layer>
		<layer id="19" name="Constant_18193" type="Const" version="opset1">
			<data element_type="f32" shape="448, 512" offset="107270164" size="917504" />
			<output>
				<port id="0" precision="FP32" names="112,weight.45">
					<dim>448</dim>
					<dim>512</dim>
				</port>
			</output>
		</layer>
		<layer id="20" name="__module.model.model.decoder.embed_positions/aten::slice/Unsqueeze" type="Const" version="opset1">
			<data element_type="i32" shape="1" offset="107270152" size="4" />
			<output>
				<port id="0" precision="I32">
					<dim>1</dim>
				</port>
			</output>
		</layer>
		<layer id="21" name="__module.model.model.decoder.embed_positions/aten::size/ShapeOf" type="ShapeOf" version="opset3">
			<data output_type="i32" />
			<input>
				<port id="0" precision="I64">
					<dim>-1</dim>
					<dim>-1</dim>
				</port>
			</input>
			<output>
				<port id="1" precision="I32">
					<dim>2</dim>
				</port>
			</output>
		</layer>
		<layer id="22" name="__module.model.model.decoder.embed_positions/aten::size/Constant" type="Const" version="opset1">
			<data element_type="i32" shape="" offset="107270152" size="4" />
			<output>
				<port id="0" precision="I32" />
			</output>
		</layer>
		<layer id="23" name="__module.model.model.decoder.embed_positions/aten::size/Gather" type="Gather" version="opset8">
			<data batch_dims="0" />
			<input>
				<port id="0" precision="I32">
					<dim>2</dim>
				</port>
				<port id="1" precision="I32" />
				<port id="2" precision="I32" />
			</input>
			<output>
				<port id="3" precision="I32" names="113,115,116" />
			</output>
		</layer>
		<layer id="24" name="__module.model.model.decoder.embed_positions/aten::slice/Constant" type="Const" version="opset1">
			<data element_type="i32" shape="" offset="107270152" size="4" />
			<output>
				<port id="0" precision="I32" />
			</output>
		</layer>
		<layer id="25" name="__module.model.model.decoder.embed_positions/aten::slice/Unsqueeze_1" type="Unsqueeze" version="opset1">
			<input>
				<port id="0" precision="I32" />
				<port id="1" precision="I32" />
			</input>
			<output>
				<port id="2" precision="I32">
					<dim>1</dim>
				</port>
			</output>
		</layer>
		<layer id="26" name="__module.model.model.decoder.embed_positions/aten::slice/Unsqueeze_2" type="Const" version="opset1">
			<data element_type="i32" shape="1" offset="107270148" size="4" />
			<output>
				<port id="0" precision="I32">
					<dim>1</dim>
				</port>
			</output>
		</layer>
		<layer id="27" name="__module.model.model.decoder.embed_positions/aten::slice/Slice" type="StridedSlice" version="opset1">
			<data begin_mask="0" end_mask="0" new_axis_mask="" shrink_axis_mask="" ellipsis_mask="" />
			<input>
				<port id="0" precision="FP32">
					<dim>448</dim>
					<dim>512</dim>
				</port>
				<port id="1" precision="I32">
					<dim>1</dim>
				</port>
				<port id="2" precision="I32">
					<dim>1</dim>
				</port>
				<port id="3" precision="I32">
					<dim>1</dim>
				</port>
			</input>
			<output>
				<port id="4" precision="FP32" names="117,positions">
					<dim>-1</dim>
					<dim>512</dim>
				</port>
			</output>
		</layer>
		<layer id="28" name="__module.model.model.decoder/aten::add/Add" type="Add" version="opset1">
			<data auto_broadcast="numpy" />
			<input>
				<port id="0" precision="FP32">
					<dim>-1</dim>
					<dim>-1</dim>
					<dim>512</dim>
				</port>
				<port id="1" precision="FP32">
					<dim>-1</dim>
					<dim>512</dim>
				</port>
			</input>
			<output>
				<port id="2" precision="FP32" names="118,input.3">
					<dim>-1</dim>
					<dim>-1</dim>
					<dim>512</dim>
				</port>
			</output>
		</layer>
		<layer id="29" name="__module.model.model.decoder.layers.0.self_attn_layer_norm/aten::layer_norm/Constant" type="Const" version="opset1">
			<data element_type="i32" shape="1" offset="107270144" size="4" />
			<output>
				<port id="0" precision="I32">
					<dim>1</dim>
				</port>
			</output>
		</layer>
		<layer id="30" name="__module.model.model.decoder.layers.0.self_attn_layer_norm/aten::layer_norm/MVN" type="MVN" version="opset6">
			<data eps="9.9999997473787516e-06" normalize_variance="true" eps_mode="INSIDE_SQRT" />
			<input>
				<port id="0" precision="FP32">
					<dim>-1</dim>
					<dim>-1</dim>
					<dim>512</dim>
				</port>
				<port id="1" precision="I32">
					<dim>1</dim>
				</port>
			</input>
			<output>
				<port id="2" precision="FP32">
					<dim>-1</dim>
					<dim>-1</dim>
					<dim>512</dim>
				</port>
			</output>
		</layer>
		<layer id="31" name="Constant_78635" type="Const" version="opset1">
			<data element_type="f32" shape="1, 1, 512" offset="108187668" size="2048" />
			<output>
				<port id="0" precision="FP32">
					<dim>1</dim>
					<dim>1</dim>
					<dim>512</dim>
				</port>
			</output>
		</layer>
		<layer id="32" name="__module.model.model.decoder.layers.0.self_attn_layer_norm/aten::layer_norm/Multiply" type="Multiply" version="opset1">
			<data auto_broadcast="numpy" />
			<input>
				<port id="0" precision="FP32">
					<dim>-1</dim>
					<dim>-1</dim>
					<dim>512</dim>
				</port>
				<port id="1" precision="FP32">
					<dim>1</dim>
					<dim>1</dim>
					<dim>512</dim>
				</port>
			</input>
			<output>
				<port id="2" precision="FP32">
					<dim>-1</dim>
					<dim>-1</dim>
					<dim>512</dim>
				</port>
			</output>
		</layer>
		<layer id="33" name="Constant_78636" type="Const" version="opset1">
			<data element_type="f32" shape="1, 1, 512" offset="108189716" size="2048" />
			<output>
				<port id="0" precision="FP32">
					<dim>1</dim>
					<dim>1</dim>
					<dim>512</dim>
				</port>
			</output>
		</layer>
		<layer id="34" name="__module.model.model.decoder.layers.0.self_attn_layer_norm/aten::layer_norm/Add" type="Add" version="opset1">
			<data auto_broadcast="numpy" />
			<input>
				<port id="0" precision="FP32">
					<dim>-1</dim>
					<dim>-1</dim>
					<dim>512</dim>
				</port>
				<port id="1" precision="FP32">
					<dim>1</dim>
					<dim>1</dim>
					<dim>512</dim>
				</port>
			</input>
			<output>
				<port id="2" precision="FP32" names="130,hidden_states.1">
					<dim>-1</dim>
					<dim>-1</dim>
					<dim>512</dim>
				</port>
			</output>
		</layer>
		<layer id="35" name="Constant_78288" type="Const" version="opset1">
			<data element_type="f32" shape="512, 512" offset="108191764" size="1048576" />
			<output>
				<port id="0" precision="FP32">
					<dim>512</dim>
					<dim>512</dim>
				</port>
			</output>
		</layer>
		<layer id="36" name="Multiply_78239" type="MatMul" version="opset1">
			<data transpose_a="false" transpose_b="true" />
			<input>
				<port id="0" precision="FP32">
					<dim>-1</dim>
					<dim>-1</dim>
					<dim>512</dim>
				</port>
				<port id="1" precision="FP32">
					<dim>512</dim>
					<dim>512</dim>
				</port>
			</input>
			<output>
				<port id="2" precision="FP32">
					<dim>-1</dim>
					<dim>-1</dim>
					<dim>512</dim>
				</port>
			</output>
		</layer>
		<layer id="37" name="Constant_78637" type="Const" version="opset1">
			<data element_type="f32" shape="1, 1, 512" offset="109240340" size="2048" />
			<output>
				<port id="0" precision="FP32">
					<dim>1</dim>
					<dim>1</dim>
					<dim>512</dim>
				</port>
			</output>
		</layer>
		<layer id="38" name="__module.model.model.decoder.layers.0.self_attn/aten::mul/Multiply" type="Add" version="opset1">
			<data auto_broadcast="numpy" />
			<input>
				<port id="0" precision="FP32">
					<dim>-1</dim>
					<dim>-1</dim>
					<dim>512</dim>
				</port>
				<port id="1" precision="FP32">
					<dim>1</dim>
					<dim>1</dim>
					<dim>512</dim>
				</port>
			</input>
			<output>
				<port id="2" precision="FP32" names="141,tensor.5">
					<dim>-1</dim>
					<dim>-1</dim>
					<dim>512</dim>
				</port>
			</output>
		</layer>
		<layer id="39" name="__module.model.model.decoder.layers.0.self_attn/aten::size/ShapeOf" type="ShapeOf" version="opset3">
			<data output_type="i32" />
			<input>
				<port id="0" precision="FP32">
					<dim>-1</dim>
					<dim>-1</dim>
					<dim>512</dim>
				</port>
			</input>
			<output>
				<port id="1" precision="I32">
					<dim>3</dim>
				</port>
			</output>
		</layer>
		<layer id="40" name="61" type="Const" version="opset1">
			<data element_type="i32" shape="" offset="107270152" size="4" />
			<output>
				<port id="0" precision="I32" names="61" />
			</output>
		</layer>
		<layer id="41" name="__module.model.model.decoder.layers.0.self_attn/aten::size/Constant" type="Const" version="opset1">
			<data element_type="i32" shape="" offset="107270152" size="4" />
			<output>
				<port id="0" precision="I32" />
			</output>
		</layer>
		<layer id="42" name="__module.model.model.decoder.layers.0.self_attn/aten::size/Gather" type="Gather" version="opset8">
			<data batch_dims="0" />
			<input>
				<port id="0" precision="I32">
					<dim>3</dim>
				</port>
				<port id="1" precision="I32" />
				<port id="2" precision="I32" />
			</input>
			<output>
				<port id="3" precision="I32" names="135" />
			</output>
		</layer>
		<layer id="43" name="Constant_148391" type="Const" version="opset1">
			<data element_type="i64" shape="1" offset="107270156" size="8" />
			<output>
				<port id="0" precision="I64">
					<dim>1</dim>
				</port>
			</output>
		</layer>
		<layer id="44" name="__module.model.model.decoder.layers.0.self_attn/prim::ListConstruct/Reshape" type="Reshape" version="opset1">
			<data special_zero="false" />
			<input>
				<port id="0" precision="I32" />
				<port id="1" precision="I64">
					<dim>1</dim>
				</port>
			</input>
			<output>
				<port id="2" precision="I32">
					<dim>1</dim>
				</port>
			</output>
		</layer>
		<layer id="45" name="Constant_75133" type="Const" version="opset1">
			<data element_type="i32" shape="1" offset="107270148" size="4" />
			<output>
				<port id="0" precision="I32">
					<dim>1</dim>
				</port>
			</output>
		</layer>
		<layer id="46" name="__module.model.model.decoder.layers.0.self_attn/aten::size/Constant_1" type="Const" version="opset1">
			<data element_type="i32" shape="" offset="107270152" size="4" />
			<output>
				<port id="0" precision="I32" />
			</output>
		</layer>
		<layer id="47" name="__module.model.model.decoder.layers.0.self_attn/aten::size/Gather_1" type="Gather" version="opset8">
			<data batch_dims="0" />
			<input>
				<port id="0" precision="I32">
					<dim>3</dim>
				</port>
				<port id="1" precision="I32">
					<dim>1</dim>
				</port>
				<port id="2" precision="I32" />
			</input>
			<output>
				<port id="3" precision="I32" names="137">
					<dim>1</dim>
				</port>
			</output>
		</layer>
		<layer id="48" name="__module.model.model.decoder.layers.0.self_attn/prim::ListConstruct/Reshape_1" type="Const" version="opset1">
			<data element_type="i32" shape="1" offset="109242388" size="4" />
			<output>
				<port id="0" precision="I32">
					<dim>1</dim>
				</port>
			</output>
		</layer>
		<layer id="49" name="__module.model.model.decoder.layers.0.self_attn/prim::ListConstruct/Reshape_2" type="Const" version="opset1">
			<data element_type="i32" shape="1" offset="109242392" size="4" />
			<output>
				<port id="0" precision="I32">
					<dim>1</dim>
				</port>
			</output>
		</layer>
		<layer id="50" name="__module.model.model.decoder.layers.0.self_attn/prim::ListConstruct/Concat" type="Concat" version="opset1">
			<data axis="0" />
			<input>
				<port id="0" precision="I32">
					<dim>1</dim>
				</port>
				<port id="1" precision="I32">
					<dim>1</dim>
				</port>
				<port id="2" precision="I32">
					<dim>1</dim>
				</port>
				<port id="3" precision="I32">
					<dim>1</dim>
				</port>
			</input>
			<output>
				<port id="4" precision="I32" names="159">
					<dim>4</dim>
				</port>
			</output>
		</layer>
		<layer id="51" name="__module.model.model.decoder.layers.0.self_attn/aten::view/Reshape" type="Reshape" version="opset1">
			<data special_zero="false" />
			<input>
				<port id="0" precision="FP32">
					<dim>-1</dim>
					<dim>-1</dim>
					<dim>512</dim>
				</port>
				<port id="1" precision="I32">
					<dim>4</dim>
				</port>
			</input>
			<output>
				<port id="2" precision="FP32" names="160">
					<dim>-1</dim>
					<dim>-1</dim>
					<dim>8</dim>
					<dim>64</dim>
				</port>
			</output>
		</layer>
		<layer id="52" name="__module.model.model.decoder.layers.0.self_attn/aten::transpose/ScatterElementsUpdate" type="Const" version="opset1">
			<data element_type="i32" shape="4" offset="109242396" size="16" />
			<output>
				<port id="0" precision="I32">
					<dim>4</dim>
				</port>
			</output>
		</layer>
		<layer id="53" name="__module.model.model.decoder.layers.0.self_attn/aten::transpose/Transpose" type="Transpose" version="opset1">
			<input>
				<port id="0" precision="FP32">
					<dim>-1</dim>
					<dim>-1</dim>
					<dim>8</dim>
					<dim>64</dim>
				</port>
				<port id="1" precision="I32">
					<dim>4</dim>
				</port>
			</input>
			<output>
				<port id="2" precision="FP32" names="161">
					<dim>-1</dim>
					<dim>8</dim>
					<dim>-1</dim>
					<dim>64</dim>
				</port>
			</output>
		</layer>
		<layer id="54" name="42" type="Const" version="opset1">
			<data element_type="i32" shape="" offset="109242388" size="4" />
			<output>
				<port id="0" precision="I32" names="42" />
			</output>
		</layer>
		<layer id="55" name="__module.model.model.decoder.layers.0.self_attn/aten::mul/Multiply_1" type="Multiply" version="opset1">
			<data auto_broadcast="numpy" />
			<input>
				<port id="0" precision="I32" />
				<port id="1" precision="I32" />
			</input>
			<output>
				<port id="2" precision="I32" names="155,156,157,158,175,176" />
			</output>
		</layer>
		<layer id="56" name="Constant_148392" type="Const" version="opset1">
			<data element_type="i64" shape="1" offset="107270156" size="8" />
			<output>
				<port id="0" precision="I64">
					<dim>1</dim>
				</port>
			</output>
		</layer>
		<layer id="57" name="__module.model.model.decoder.layers.0.self_attn/prim::ListConstruct/Reshape_3" type="Reshape" version="opset1">
			<data special_zero="false" />
			<input>
				<port id="0" precision="I32" />
				<port id="1" precision="I64">
					<dim>1</dim>
				</port>
			</input>
			<output>
				<port id="2" precision="I32">
					<dim>1</dim>
				</port>
			</output>
		</layer>
		<layer id="58" name="__module.model.model.decoder.layers.0.self_attn/prim::ListConstruct/Reshape_0_1" type="Const" version="opset1">
			<data element_type="i32" shape="1" offset="107270144" size="4" />
			<output>
				<port id="0" precision="I32">
					<dim>1</dim>
				</port>
			</output>
		</layer>
		<layer id="59" name="__module.model.model.decoder.layers.0.self_attn/prim::ListConstruct/Reshape_1_1" type="Const" version="opset1">
			<data element_type="i32" shape="1" offset="109242392" size="4" />
			<output>
				<port id="0" precision="I32">
					<dim>1</dim>
				</port>
			</output>
		</layer>
		<layer id="60" name="__module.model.model.decoder.layers.0.self_attn/prim::ListConstruct/Concat_1" type="Concat" version="opset1">
			<data axis="0" />
			<input>
				<port id="0" precision="I32">
					<dim>1</dim>
				</port>
				<port id="1" precision="I32">
					<dim>1</dim>
				</port>
				<port id="2" precision="I32">
					<dim>1</dim>
				</port>
			</input>
			<output>
				<port id="3" precision="I32" names="163,165,167">
					<dim>3</dim>
				</port>
			</output>
		</layer>
		<layer id="61" name="__module.model.model.decoder.layers.0.self_attn/aten::view/Reshape_1" type="Reshape" version="opset1">
			<data special_zero="false" />
			<input>
				<port id="0" precision="FP32">
					<dim>-1</dim>
					<dim>8</dim>
					<dim>-1</dim>
					<dim>64</dim>
				</port>
				<port id="1" precision="I32">
					<dim>3</dim>
				</port>
			</input>
			<output>
				<port id="2" precision="FP32" names="164,query_states.1">
					<dim>-1</dim>
					<dim>-1</dim>
					<dim>64</dim>
				</port>
			</output>
		</layer>
		<layer id="62" name="Constant_18249" type="Const" version="opset1">
			<data element_type="f32" shape="512, 512" offset="109242412" size="1048576" />
			<output>
				<port id="0" precision="FP32" names="142,weight.51">
					<dim>512</dim>
					<dim>512</dim>
				</port>
			</output>
		</layer>
		<layer id="63" name="__module.model.model.decoder.layers.0.self_attn.k_proj/aten::linear/MatMul" type="MatMul" version="opset1">
			<data transpose_a="false" transpose_b="true" />
			<input>
				<port id="0" precision="FP32">
					<dim>-1</dim>
					<dim>-1</dim>
					<dim>512</dim>
				</port>
				<port id="1" precision="FP32">
					<dim>512</dim>
					<dim>512</dim>
				</port>
			</input>
			<output>
				<port id="2" precision="FP32" names="143,tensor.1">
					<dim>-1</dim>
					<dim>-1</dim>
					<dim>512</dim>
				</port>
			</output>
		</layer>
		<layer id="64" name="__module.model.model.decoder.layers.0.self_attn/prim::ListConstruct/Reshape_0_2" type="Const" version="opset1">
			<data element_type="i32" shape="1" offset="107270144" size="4" />
			<output>
				<port id="0" precision="I32">
					<dim>1</dim>
				</port>
			</output>
		</layer>
		<layer id="65" name="__module.model.model.decoder.layers.0.self_attn/prim::ListConstruct/Reshape_1_2" type="Const" version="opset1">
			<data element_type="i32" shape="1" offset="109242388" size="4" />
			<output>
				<port id="0" precision="I32">
					<dim>1</dim>
				</port>
			</output>
		</layer>
		<layer id="66" name="__module.model.model.decoder.layers.0.self_attn/prim::ListConstruct/Reshape_2_1" type="Const" version="opset1">
			<data element_type="i32" shape="1" offset="109242392" size="4" />
			<output>
				<port id="0" precision="I32">
					<dim>1</dim>
				</port>
			</output>
		</layer>
		<layer id="67" name="__module.model.model.decoder.layers.0.self_attn/prim::ListConstruct/Concat_2" type="Concat" version="opset1">
			<data axis="0" />
			<input>
				<port id="0" precision="I32">
					<dim>1</dim>
				</port>
				<port id="1" precision="I32">
					<dim>1</dim>
				</port>
				<port id="2" precision="I32">
					<dim>1</dim>
				</port>
				<port id="3" precision="I32">
					<dim>1</dim>
				</port>
			</input>
			<output>
				<port id="4" precision="I32" names="144,151">
					<dim>4</dim>
				</port>
			</output>
		</layer>
		<layer id="68" name="__module.model.model.decoder.layers.0.self_attn/aten::view/Reshape_2" type="Reshape" version="opset1">
			<data special_zero="false" />
			<input>
				<port id="0" precision="FP32">
					<dim>-1</dim>
					<dim>-1</dim>
					<dim>512</dim>
				</port>
				<port id="1" precision="I32">
					<dim>4</dim>
				</port>
			</input>
			<output>
				<port id="2" precision="FP32" names="145">
					<dim>-1</dim>
					<dim>-1</dim>
					<dim>8</dim>
					<dim>64</dim>
				</port>
			</output>
		</layer>
		<layer id="69" name="__module.model.model.decoder.layers.0.self_attn/aten::transpose/ScatterElementsUpdate_1" type="Const" version="opset1">
			<data element_type="i32" shape="4" offset="109242396" size="16" />
			<output>
				<port id="0" precision="I32">
					<dim>4</dim>
				</port>
			</output>
		</layer>
		<layer id="70" name="__module.model.model.decoder.layers.0.self_attn/aten::transpose/Transpose_1" type="Transpose" version="opset1">
			<input>
				<port id="0" precision="FP32">
					<dim>-1</dim>
					<dim>-1</dim>
					<dim>8</dim>
					<dim>64</dim>
				</port>
				<port id="1" precision="I32">
					<dim>4</dim>
				</port>
			</input>
			<output>
				<port id="2" precision="FP32" names="present.0.decoder.key">
					<dim>-1</dim>
					<dim>8</dim>
					<dim>-1</dim>
					<dim>64</dim>
				</port>
			</output>
		</layer>
		<layer id="71" name="__module.model.model.decoder.layers.0.self_attn/aten::reshape/Reshape" type="Reshape" version="opset1">
			<data special_zero="false" />
			<input>
				<port id="0" precision="FP32">
					<dim>-1</dim>
					<dim>8</dim>
					<dim>-1</dim>
					<dim>64</dim>
				</port>
				<port id="1" precision="I32">
					<dim>3</dim>
				</port>
			</input>
			<output>
				<port id="2" precision="FP32" names="166,key_states.3">
					<dim>-1</dim>
					<dim>-1</dim>
					<dim>64</dim>
				</port>
			</output>
		</layer>
		<layer id="72" name="__module.model.model.decoder.layers.0.self_attn/aten::bmm/MatMul" type="MatMul" version="opset1">
			<data transpose_a="false" transpose_b="true" />
			<input>
				<port id="0" precision="FP32">
					<dim>-1</dim>
					<dim>-1</dim>
					<dim>64</dim>
				</port>
				<port id="1" precision="FP32">
					<dim>-1</dim>
					<dim>-1</dim>
					<dim>64</dim>
				</port>
			</input>
			<output>
				<port id="2" precision="FP32" names="171,attn_weights.1">
					<dim>-1</dim>
					<dim>-1</dim>
					<dim>-1</dim>
				</port>
			</output>
		</layer>
		<layer id="73" name="__module.model.model.decoder.layers.0.self_attn/prim::ListConstruct/Reshape_0_4" type="Const" version="opset1">
			<data element_type="i32" shape="1" offset="109242388" size="4" />
			<output>
				<port id="0" precision="I32">
					<dim>1</dim>
				</port>
			</output>
		</layer>
		<layer id="74" name="__module.model.model.decoder.layers.0.self_attn/aten::size/ShapeOf_2" type="ShapeOf" version="opset3">
			<data output_type="i32" />
			<input>
				<port id="0" precision="FP32">
					<dim>-1</dim>
					<dim>-1</dim>
					<dim>64</dim>
				</port>
			</input>
			<output>
				<port id="1" precision="I32">
					<dim>3</dim>
				</port>
			</output>
		</layer>
		<layer id="75" name="Constant_75136" type="Const" version="opset1">
			<data element_type="i32" shape="1" offset="107270148" size="4" />
			<output>
				<port id="0" precision="I32">
					<dim>1</dim>
				</port>
			</output>
		</layer>
		<layer id="76" name="__module.model.model.decoder.layers.0.self_attn/aten::size/Constant_2" type="Const" version="opset1">
			<data element_type="i32" shape="" offset="107270152" size="4" />
			<output>
				<port id="0" precision="I32" />
			</output>
		</layer>
		<layer id="77" name="__module.model.model.decoder.layers.0.self_attn/aten::size/Gather_2" type="Gather" version="opset8">
			<data batch_dims="0" />
			<input>
				<port id="0" precision="I32">
					<dim>3</dim>
				</port>
				<port id="1" precision="I32">
					<dim>1</dim>
				</port>
				<port id="2" precision="I32" />
			</input>
			<output>
				<port id="3" precision="I32" names="169">
					<dim>1</dim>
				</port>
			</output>
		</layer>
		<layer id="78" name="__module.model.model.decoder.layers.0.self_attn/prim::ListConstruct/Concat_4" type="Concat" version="opset1">
			<data axis="0" />
			<input>
				<port id="0" precision="I32">
					<dim>1</dim>
				</port>
				<port id="1" precision="I32">
					<dim>1</dim>
				</port>
				<port id="2" precision="I32">
					<dim>1</dim>
				</port>
				<port id="3" precision="I32">
					<dim>1</dim>
				</port>
			</input>
			<output>
				<port id="4" precision="I32" names="172">
					<dim>4</dim>
				</port>
			</output>
		</layer>
		<layer id="79" name="__module.model.model.decoder.layers.0.self_attn/aten::view/Reshape_3" type="Reshape" version="opset1">
			<data special_zero="false" />
			<input>
				<port id="0" precision="FP32">
					<dim>-1</dim>
					<dim>-1</dim>
					<dim>-1</dim>
				</port>
				<port id="1" precision="I32">
					<dim>4</dim>
				</port>
			</input>
			<output>
				<port id="2" precision="FP32" names="173">
					<dim>-1</dim>
					<dim>8</dim>
					<dim>-1</dim>
					<dim>-1</dim>
				</port>
			</output>
		</layer>
		<layer id="80" name="__module.model.model.decoder/aten::arange/Constant" type="Const" version="opset1">
			<data element_type="i32" shape="" offset="107270152" size="4" />
			<output>
				<port id="0" precision="I32" />
			</output>
		</layer>
		<layer id="81" name="55" type="Const" version="opset1">
			<data element_type="f32" shape="" offset="110290988" size="4" />
			<output>
				<port id="0" precision="FP32" names="55" />
			</output>
		</layer>
		<layer id="82" name="__module.model.model.decoder/prim::ListConstruct/Concat_1" type="Concat" version="opset1">
			<data axis="0" />
			<input>
				<port id="0" precision="I32">
					<dim>1</dim>
				</port>
				<port id="1" precision="I32">
					<dim>1</dim>
				</port>
			</input>
			<output>
				<port id="2" precision="I32" names="93">
					<dim>2</dim>
				</port>
			</output>
		</layer>
		<layer id="83" name="__module.model.model.decoder/aten::full/Broadcast" type="Broadcast" version="opset3">
			<data mode="numpy" />
			<input>
				<port id="0" precision="FP32" />
				<port id="1" precision="I32">
					<dim>2</dim>
				</port>
			</input>
			<output>
				<port id="2" precision="FP32" names="94_1">
					<dim>-1</dim>
					<dim>-1</dim>
				</port>
			</output>
		</layer>
		<layer id="84" name="__module.model.model.decoder/aten::size/ShapeOf_1" type="ShapeOf" version="opset3">
			<data output_type="i32" />
			<input>
				<port id="0" precision="FP32">
					<dim>-1</dim>
					<dim>-1</dim>
				</port>
			</input>
			<output>
				<port id="1" precision="I32">
					<dim>2</dim>
				</port>
			</output>
		</layer>
		<layer id="85" name="59" type="Const" version="opset1">
			<data element_type="i32" shape="" offset="107270144" size="4" />
			<output>
				<port id="0" precision="I32" names="59" />
			</output>
		</layer>
		<layer id="86" name="__module.model.model.decoder/aten::size/Constant_1" type="Const" version="opset1">
			<data element_type="i32" shape="" offset="107270152" size="4" />
			<output>
				<port id="0" precision="I32" />
			</output>
		</layer>
		<layer id="87" name="__module.model.model.decoder/aten::size/Gather_1" type="Gather" version="opset8">
			<data batch_dims="0" />
			<input>
				<port id="0" precision="I32">
					<dim>2</dim>
				</port>
				<port id="1" precision="I32" />
				<port id="2" precision="I32" />
			</input>
			<output>
				<port id="3" precision="I32" names="95,98" />
			</output>
		</layer>
		<layer id="88" name="__module.model.model.decoder/aten::arange/Constant_1" type="Const" version="opset1">
			<data element_type="i32" shape="" offset="107270148" size="4" />
			<output>
				<port id="0" precision="I32" />
			</output>
		</layer>
		<layer id="89" name="__module.model.model.decoder/aten::arange/Range" type="Range" version="opset4">
			<data output_type="f32" />
			<input>
				<port id="0" precision="I32" />
				<port id="1" precision="I32" />
				<port id="2" precision="I32" />
			</input>
			<output>
				<port id="3" precision="FP32">
					<dim>-1</dim>
				</port>
			</output>
		</layer>
		<layer id="90" name="__module.model.model.decoder/aten::arange/ConvertLike" type="Convert" version="opset1">
			<data destination_type="i32" />
			<input>
				<port id="0" precision="FP32">
					<dim>-1</dim>
				</port>
			</input>
			<output>
				<port id="1" precision="I32" names="96,mask_cond">
					<dim>-1</dim>
				</port>
			</output>
		</layer>
		<layer id="91" name="Constant_78638" type="Const" version="opset1">
			<data element_type="i32" shape="1" offset="107270148" size="4" />
			<output>
				<port id="0" precision="I32">
					<dim>1</dim>
				</port>
			</output>
		</layer>
		<layer id="92" name="__module.model.model.decoder/aten::add/Add_1" type="Add" version="opset1">
			<data auto_broadcast="numpy" />
			<input>
				<port id="0" precision="I32">
					<dim>-1</dim>
				</port>
				<port id="1" precision="I32">
					<dim>1</dim>
				</port>
			</input>
			<output>
				<port id="2" precision="I32" names="97">
					<dim>-1</dim>
				</port>
			</output>
		</layer>
		<layer id="93" name="Constant_148393" type="Const" version="opset1">
			<data element_type="i64" shape="1" offset="107270156" size="8" />
			<output>
				<port id="0" precision="I64">
					<dim>1</dim>
				</port>
			</output>
		</layer>
		<layer id="94" name="__module.model.model.decoder/prim::ListConstruct/Reshape_4" type="Reshape" version="opset1">
			<data special_zero="false" />
			<input>
				<port id="0" precision="I32" />
				<port id="1" precision="I64">
					<dim>1</dim>
				</port>
			</input>
			<output>
				<port id="2" precision="I32">
					<dim>1</dim>
				</port>
			</output>
		</layer>
		<layer id="95" name="__module.model.model.decoder/prim::ListConstruct/Reshape_0_2" type="Const" version="opset1">
			<data element_type="i32" shape="1" offset="107270148" size="4" />
			<output>
				<port id="0" precision="I32">
					<dim>1</dim>
				</port>
			</output>
		</layer>
		<layer id="96" name="__module.model.model.decoder/prim::ListConstruct/Concat_2" type="Concat" version="opset1">
			<data axis="0" />
			<input>
				<port id="0" precision="I32">
					<dim>1</dim>
				</port>
				<port id="1" precision="I32">
					<dim>1</dim>
				</port>
			</input>
			<output>
				<port id="2" precision="I32" names="99">
					<dim>2</dim>
				</port>
			</output>
		</layer>
		<layer id="97" name="__module.model.model.decoder/aten::view/Reshape_1" type="Reshape" version="opset1">
			<data special_zero="false" />
			<input>
				<port id="0" precision="I32">
					<dim>-1</dim>
				</port>
				<port id="1" precision="I32">
					<dim>2</dim>
				</port>
			</input>
			<output>
				<port id="2" precision="I32" names="100">
					<dim>-1</dim>
					<dim>1</dim>
				</port>
			</output>
		</layer>
		<layer id="98" name="__module.model.model.decoder/aten::lt/Less" type="Less" version="opset1">
			<data auto_broadcast="numpy" />
			<input>
				<port id="0" precision="I32">
					<dim>-1</dim>
				</port>
				<port id="1" precision="I32">
					<dim>-1</dim>
					<dim>1</dim>
				</port>
			</input>
			<output>
				<port id="2" precision="BOOL" names="101">
					<dim>-1</dim>
					<dim>-1</dim>
				</port>
			</output>
		</layer>
		<layer id="99" name="__module.model.model.decoder/aten::masked_fill_/ConvertLike" type="Const" version="opset1">
			<data element_type="f32" shape="" offset="107270152" size="4" />
			<output>
				<port id="0" precision="FP32" />
			</output>
		</layer>
		<layer id="100" name="__module.model.model.decoder/aten::masked_fill_/Select" type="Select" version="opset1">
			<data auto_broadcast="numpy" />
			<input>
				<port id="0" precision="BOOL">
					<dim>-1</dim>
					<dim>-1</dim>
				</port>
				<port id="1" precision="FP32" />
				<port id="2" precision="FP32">
					<dim>-1</dim>
					<dim>-1</dim>
				</port>
			</input>
			<output>
				<port id="3" precision="FP32" names="103,94,mask,mask.1">
					<dim>-1</dim>
					<dim>-1</dim>
				</port>
			</output>
		</layer>
		<layer id="101" name="__module.model.model.decoder/aten::unsqueeze/Unsqueeze" type="Unsqueeze" version="opset1">
			<input>
				<port id="0" precision="FP32">
					<dim>-1</dim>
					<dim>-1</dim>
				</port>
				<port id="1" precision="I32" />
			</input>
			<output>
				<port id="2" precision="FP32" names="104">
					<dim>1</dim>
					<dim>-1</dim>
					<dim>-1</dim>
				</port>
			</output>
		</layer>
		<layer id="102" name="__module.model.model.decoder/aten::unsqueeze/Unsqueeze_1" type="Unsqueeze" version="opset1">
			<input>
				<port id="0" precision="FP32">
					<dim>1</dim>
					<dim>-1</dim>
					<dim>-1</dim>
				</port>
				<port id="1" precision="I32" />
			</input>
			<output>
				<port id="2" precision="FP32" names="105">
					<dim>1</dim>
					<dim>1</dim>
					<dim>-1</dim>
					<dim>-1</dim>
				</port>
			</output>
		</layer>
		<layer id="103" name="Constant_75194" type="Const" version="opset1">
			<data element_type="i32" shape="3" offset="110290992" size="12" />
			<output>
				<port id="0" precision="I32">
					<dim>3</dim>
				</port>
			</output>
		</layer>
		<layer id="104" name="Constant_75197" type="Const" version="opset1">
			<data element_type="i64" shape="3" offset="110291004" size="24" />
			<output>
				<port id="0" precision="I64">
					<dim>3</dim>
				</port>
			</output>
		</layer>
		<layer id="105" name="Constant_75200" type="Const" version="opset1">
			<data element_type="i32" shape="3" offset="110291028" size="12" />
			<output>
				<port id="0" precision="I32">
					<dim>3</dim>
				</port>
			</output>
		</layer>
		<layer id="106" name="__module.model.model.decoder/aten::slice/Slice" type="StridedSlice" version="opset1">
			<data begin_mask="1, 1, 0" end_mask="1, 1, 0" new_axis_mask="" shrink_axis_mask="" ellipsis_mask="" />
			<input>
				<port id="0" precision="FP32">
					<dim>1</dim>
					<dim>1</dim>
					<dim>-1</dim>
					<dim>-1</dim>
				</port>
				<port id="1" precision="I32">
					<dim>3</dim>
				</port>
				<port id="2" precision="I64">
					<dim>3</dim>
				</port>
				<port id="3" precision="I32">
					<dim>3</dim>
				</port>
			</input>
			<output>
				<port id="4" precision="FP32" names="106">
					<dim>1</dim>
					<dim>1</dim>
					<dim>-1</dim>
					<dim>-1</dim>
				</port>
			</output>
		</layer>
		<layer id="107" name="Constant_75206" type="Const" version="opset1">
			<data element_type="i32" shape="4" offset="110291040" size="16" />
			<output>
				<port id="0" precision="I32">
					<dim>4</dim>
				</port>
			</output>
		</layer>
		<layer id="108" name="Constant_75209" type="Const" version="opset1">
			<data element_type="i64" shape="4" offset="110291056" size="32" />
			<output>
				<port id="0" precision="I64">
					<dim>4</dim>
				</port>
			</output>
		</layer>
		<layer id="109" name="Constant_75212" type="Const" version="opset1">
			<data element_type="i32" shape="4" offset="110291088" size="16" />
			<output>
				<port id="0" precision="I32">
					<dim>4</dim>
				</port>
			</output>
		</layer>
		<layer id="110" name="__module.model.model.decoder/aten::slice/Slice_1" type="StridedSlice" version="opset1">
			<data begin_mask="1, 1, 1, 0" end_mask="1, 1, 1, 0" new_axis_mask="" shrink_axis_mask="" ellipsis_mask="" />
			<input>
				<port id="0" precision="FP32">
					<dim>1</dim>
					<dim>1</dim>
					<dim>-1</dim>
					<dim>-1</dim>
				</port>
				<port id="1" precision="I32">
					<dim>4</dim>
				</port>
				<port id="2" precision="I64">
					<dim>4</dim>
				</port>
				<port id="3" precision="I32">
					<dim>4</dim>
				</port>
			</input>
			<output>
				<port id="4" precision="FP32" names="107">
					<dim>1</dim>
					<dim>1</dim>
					<dim>-1</dim>
					<dim>-1</dim>
				</port>
			</output>
		</layer>
		<layer id="111" name="Constant_75139" type="Const" version="opset1">
			<data element_type="i32" shape="1" offset="107270152" size="4" />
			<output>
				<port id="0" precision="I32">
					<dim>1</dim>
				</port>
			</output>
		</layer>
		<layer id="112" name="__module.model.model.decoder/aten::size/Constant_3" type="Const" version="opset1">
			<data element_type="i32" shape="" offset="107270152" size="4" />
			<output>
				<port id="0" precision="I32" />
			</output>
		</layer>
		<layer id="113" name="__module.model.model.decoder/aten::size/Gather_3" type="Gather" version="opset8">
			<data batch_dims="0" />
			<input>
				<port id="0" precision="I32">
					<dim>2</dim>
				</port>
				<port id="1" precision="I32">
					<dim>1</dim>
				</port>
				<port id="2" precision="I32" />
			</input>
			<output>
				<port id="3" precision="I32" names="84">
					<dim>1</dim>
				</port>
			</output>
		</layer>
		<layer id="114" name="__module.model.model.decoder/prim::ListConstruct/Reshape_0_3" type="Const" version="opset1">
			<data element_type="i32" shape="1" offset="107270148" size="4" />
			<output>
				<port id="0" precision="I32">
					<dim>1</dim>
				</port>
			</output>
		</layer>
		<layer id="115" name="__module.model.model.decoder/aten::sub/Subtract" type="Subtract" version="opset1">
			<data auto_broadcast="numpy" />
			<input>
				<port id="0" precision="I32" />
				<port id="1" precision="I32" />
			</input>
			<output>
				<port id="2" precision="I32" names="92,past_key_values_length" />
			</output>
		</layer>
		<layer id="116" name="__module.model.model.decoder/aten::add/Add_3" type="Add" version="opset1">
			<data auto_broadcast="numpy" />
			<input>
				<port id="0" precision="I32" />
				<port id="1" precision="I32" />
			</input>
			<output>
				<port id="2" precision="I32" names="108,109" />
			</output>
		</layer>
		<layer id="117" name="Constant_148394" type="Const" version="opset1">
			<data element_type="i64" shape="1" offset="107270156" size="8" />
			<output>
				<port id="0" precision="I64">
					<dim>1</dim>
				</port>
			</output>
		</layer>
		<layer id="118" name="__module.model.model.decoder/prim::ListConstruct/Reshape_2" type="Reshape" version="opset1">
			<data special_zero="false" />
			<input>
				<port id="0" precision="I32" />
				<port id="1" precision="I64">
					<dim>1</dim>
				</port>
			</input>
			<output>
				<port id="2" precision="I32">
					<dim>1</dim>
				</port>
			</output>
		</layer>
		<layer id="119" name="__module.model.model.decoder/prim::ListConstruct/Concat_3" type="Concat" version="opset1">
			<data axis="0" />
			<input>
				<port id="0" precision="I32">
					<dim>1</dim>
				</port>
				<port id="1" precision="I32">
					<dim>1</dim>
				</port>
				<port id="2" precision="I32">
					<dim>1</dim>
				</port>
				<port id="3" precision="I32">
					<dim>1</dim>
				</port>
			</input>
			<output>
				<port id="4" precision="I32" names="110">
					<dim>4</dim>
				</port>
			</output>
		</layer>
		<layer id="120" name="__module.model.model.decoder/aten::expand/Broadcast" type="Const" version="opset1">
			<data element_type="i32" shape="4" offset="110291104" size="16" />
			<output>
				<port id="0" precision="I32">
					<dim>4</dim>
				</port>
			</output>
		</layer>
		<layer id="121" name="__module.model.model.decoder/aten::expand/Equal" type="Equal" version="opset1">
			<data auto_broadcast="numpy" />
			<input>
				<port id="0" precision="I32">
					<dim>4</dim>
				</port>
				<port id="1" precision="I32">
					<dim>4</dim>
				</port>
			</input>
			<output>
				<port id="2" precision="BOOL">
					<dim>4</dim>
				</port>
			</output>
		</layer>
		<layer id="122" name="__module.model.model.decoder/aten::expand/Broadcast_1" type="Const" version="opset1">
			<data element_type="i32" shape="4" offset="110291088" size="16" />
			<output>
				<port id="0" precision="I32">
					<dim>4</dim>
				</port>
			</output>
		</layer>
		<layer id="123" name="__module.model.model.decoder/aten::expand/Select" type="Select" version="opset1">
			<data auto_broadcast="numpy" />
			<input>
				<port id="0" precision="BOOL">
					<dim>4</dim>
				</port>
				<port id="1" precision="I32">
					<dim>4</dim>
				</port>
				<port id="2" precision="I32">
					<dim>4</dim>
				</port>
			</input>
			<output>
				<port id="3" precision="I32">
					<dim>4</dim>
				</port>
			</output>
		</layer>
		<layer id="124" name="__module.model.model.decoder/aten::expand/Broadcast_2" type="Broadcast" version="opset3">
			<data mode="bidirectional" />
			<input>
				<port id="0" precision="FP32">
					<dim>1</dim>
					<dim>1</dim>
					<dim>-1</dim>
					<dim>-1</dim>
				</port>
				<port id="1" precision="I32">
					<dim>4</dim>
				</port>
			</input>
			<output>
				<port id="2" precision="FP32" names="111,attention_mask">
					<dim>-1</dim>
					<dim>1</dim>
					<dim>-1</dim>
					<dim>-1</dim>
				</port>
			</output>
		</layer>
		<layer id="125" name="__module.model.model.decoder.layers.0.self_attn/aten::add/Add" type="Add" version="opset1">
			<data auto_broadcast="numpy" />
			<input>
				<port id="0" precision="FP32">
					<dim>-1</dim>
					<dim>8</dim>
					<dim>-1</dim>
					<dim>-1</dim>
				</port>
				<port id="1" precision="FP32">
					<dim>-1</dim>
					<dim>1</dim>
					<dim>-1</dim>
					<dim>-1</dim>
				</port>
			</input>
			<output>
				<port id="2" precision="FP32" names="174,attn_weights.3">
					<dim>-1</dim>
					<dim>8</dim>
					<dim>-1</dim>
					<dim>-1</dim>
				</port>
			</output>
		</layer>
		<layer id="126" name="__module.model.model.decoder.layers.0.self_attn/prim::ListConstruct/Concat_5" type="Concat" version="opset1">
			<data axis="0" />
			<input>
				<port id="0" precision="I32">
					<dim>1</dim>
				</port>
				<port id="1" precision="I32">
					<dim>1</dim>
				</port>
				<port id="2" precision="I32">
					<dim>1</dim>
				</port>
			</input>
			<output>
				<port id="3" precision="I32" names="177">
					<dim>3</dim>
				</port>
			</output>
		</layer>
		<layer id="127" name="__module.model.model.decoder.layers.0.self_attn/aten::view/Reshape_4" type="Reshape" version="opset1">
			<data special_zero="false" />
			<input>
				<port id="0" precision="FP32">
					<dim>-1</dim>
					<dim>8</dim>
					<dim>-1</dim>
					<dim>-1</dim>
				</port>
				<port id="1" precision="I32">
					<dim>3</dim>
				</port>
			</input>
			<output>
				<port id="2" precision="FP32" names="178,input.7">
					<dim>-1</dim>
					<dim>-1</dim>
					<dim>-1</dim>
				</port>
			</output>
		</layer>
		<layer id="128" name="__module.model.model.decoder.layers.0.self_attn/aten::softmax/Softmax" type="SoftMax" version="opset8">
			<data axis="-1" />
			<input>
				<port id="0" precision="FP32">
					<dim>-1</dim>
					<dim>-1</dim>
					<dim>-1</dim>
				</port>
			</input>
			<output>
				<port id="1" precision="FP32" names="179,input.9">
					<dim>-1</dim>
					<dim>-1</dim>
					<dim>-1</dim>
				</port>
			</output>
		</layer>
		<layer id="129" name="Constant_18281" type="Const" version="opset1">
			<data element_type="f32" shape="512, 512" offset="110291120" size="1048576" />
			<output>
				<port id="0" precision="FP32" names="149,weight.53">
					<dim>512</dim>
					<dim>512</dim>
				</port>
			</output>
		</layer>
		<layer id="130" name="__module.model.model.decoder.layers.0.self_attn.v_proj/aten::linear/MatMul" type="MatMul" version="opset1">
			<data transpose_a="false" transpose_b="true" />
			<input>
				<port id="0" precision="FP32">
					<dim>-1</dim>
					<dim>-1</dim>
					<dim>512</dim>
				</port>
				<port id="1" precision="FP32">
					<dim>512</dim>
					<dim>512</dim>
				</port>
			</input>
			<output>
				<port id="2" precision="FP32">
					<dim>-1</dim>
					<dim>-1</dim>
					<dim>512</dim>
				</port>
			</output>
		</layer>
		<layer id="131" name="Constant_78639" type="Const" version="opset1">
			<data element_type="f32" shape="1, 1, 512" offset="111339696" size="2048" />
			<output>
				<port id="0" precision="FP32">
					<dim>1</dim>
					<dim>1</dim>
					<dim>512</dim>
				</port>
			</output>
		</layer>
		<layer id="132" name="__module.model.model.decoder.layers.0.self_attn.v_proj/aten::linear/Add" type="Add" version="opset1">
			<data auto_broadcast="numpy" />
			<input>
				<port id="0" precision="FP32">
					<dim>-1</dim>
					<dim>-1</dim>
					<dim>512</dim>
				</port>
				<port id="1" precision="FP32">
					<dim>1</dim>
					<dim>1</dim>
					<dim>512</dim>
				</port>
			</input>
			<output>
				<port id="2" precision="FP32" names="150,tensor.3">
					<dim>-1</dim>
					<dim>-1</dim>
					<dim>512</dim>
				</port>
			</output>
		</layer>
		<layer id="133" name="__module.model.model.decoder.layers.0.self_attn/aten::view/Reshape_5" type="Reshape" version="opset1">
			<data special_zero="false" />
			<input>
				<port id="0" precision="FP32">
					<dim>-1</dim>
					<dim>-1</dim>
					<dim>512</dim>
				</port>
				<port id="1" precision="I32">
					<dim>4</dim>
				</port>
			</input>
			<output>
				<port id="2" precision="FP32" names="152">
					<dim>-1</dim>
					<dim>-1</dim>
					<dim>8</dim>
					<dim>64</dim>
				</port>
			</output>
		</layer>
		<layer id="134" name="__module.model.model.decoder.layers.0.self_attn/aten::transpose/ScatterElementsUpdate_3" type="Const" version="opset1">
			<data element_type="i32" shape="4" offset="109242396" size="16" />
			<output>
				<port id="0" precision="I32">
					<dim>4</dim>
				</port>
			</output>
		</layer>
		<layer id="135" name="__module.model.model.decoder.layers.0.self_attn/aten::transpose/Transpose_3" type="Transpose" version="opset1">
			<input>
				<port id="0" precision="FP32">
					<dim>-1</dim>
					<dim>-1</dim>
					<dim>8</dim>
					<dim>64</dim>
				</port>
				<port id="1" precision="I32">
					<dim>4</dim>
				</port>
			</input>
			<output>
				<port id="2" precision="FP32" names="present.0.decoder.value">
					<dim>-1</dim>
					<dim>8</dim>
					<dim>-1</dim>
					<dim>64</dim>
				</port>
			</output>
		</layer>
		<layer id="136" name="__module.model.model.decoder.layers.0.self_attn/aten::reshape/Reshape_1" type="Reshape" version="opset1">
			<data special_zero="false" />
			<input>
				<port id="0" precision="FP32">
					<dim>-1</dim>
					<dim>8</dim>
					<dim>-1</dim>
					<dim>64</dim>
				</port>
				<port id="1" precision="I32">
					<dim>3</dim>
				</port>
			</input>
			<output>
				<port id="2" precision="FP32" names="168,value_states.3">
					<dim>-1</dim>
					<dim>-1</dim>
					<dim>64</dim>
				</port>
			</output>
		</layer>
		<layer id="137" name="__module.model.model.decoder.layers.0.self_attn/aten::bmm/MatMul_1" type="MatMul" version="opset1">
			<data transpose_a="false" transpose_b="false" />
			<input>
				<port id="0" precision="FP32">
					<dim>-1</dim>
					<dim>-1</dim>
					<dim>-1</dim>
				</port>
				<port id="1" precision="FP32">
					<dim>-1</dim>
					<dim>-1</dim>
					<dim>64</dim>
				</port>
			</input>
			<output>
				<port id="2" precision="FP32" names="181,attn_output.1">
					<dim>-1</dim>
					<dim>-1</dim>
					<dim>64</dim>
				</port>
			</output>
		</layer>
		<layer id="138" name="__module.model.model.decoder.layers.0.self_attn/prim::ListConstruct/Reshape_0_8" type="Const" version="opset1">
			<data element_type="i32" shape="1" offset="109242388" size="4" />
			<output>
				<port id="0" precision="I32">
					<dim>1</dim>
				</port>
			</output>
		</layer>
		<layer id="139" name="__module.model.model.decoder.layers.0.self_attn/prim::ListConstruct/Reshape_2_4" type="Const" version="opset1">
			<data element_type="i32" shape="1" offset="109242392" size="4" />
			<output>
				<port id="0" precision="I32">
					<dim>1</dim>
				</port>
			</output>
		</layer>
		<layer id="140" name="__module.model.model.decoder.layers.0.self_attn/prim::ListConstruct/Concat_8" type="Concat" version="opset1">
			<data axis="0" />
			<input>
				<port id="0" precision="I32">
					<dim>1</dim>
				</port>
				<port id="1" precision="I32">
					<dim>1</dim>
				</port>
				<port id="2" precision="I32">
					<dim>1</dim>
				</port>
				<port id="3" precision="I32">
					<dim>1</dim>
				</port>
			</input>
			<output>
				<port id="4" precision="I32" names="182">
					<dim>4</dim>
				</port>
			</output>
		</layer>
		<layer id="141" name="__module.model.model.decoder.layers.0.self_attn/aten::view/Reshape_6" type="Reshape" version="opset1">
			<data special_zero="false" />
			<input>
				<port id="0" precision="FP32">
					<dim>-1</dim>
					<dim>-1</dim>
					<dim>64</dim>
				</port>
				<port id="1" precision="I32">
					<dim>4</dim>
				</port>
			</input>
			<output>
				<port id="2" precision="FP32" names="183,attn_output.3">
					<dim>-1</dim>
					<dim>8</dim>
					<dim>-1</dim>
					<dim>64</dim>
				</port>
			</output>
		</layer>
		<layer id="142" name="__module.model.model.decoder.layers.0.self_attn/aten::transpose/ScatterElementsUpdate_4" type="Const" version="opset1">
			<data element_type="i32" shape="4" offset="109242396" size="16" />
			<output>
				<port id="0" precision="I32">
					<dim>4</dim>
				</port>
			</output>
		</layer>
		<layer id="143" name="__module.model.model.decoder.layers.0.self_attn/aten::transpose/Transpose_4" type="Transpose" version="opset1">
			<input>
				<port id="0" precision="FP32">
					<dim>-1</dim>
					<dim>8</dim>
					<dim>-1</dim>
					<dim>64</dim>
				</port>
				<port id="1" precision="I32">
					<dim>4</dim>
				</port>
			</input>
			<output>
				<port id="2" precision="FP32" names="184,attn_output.5">
					<dim>-1</dim>
					<dim>-1</dim>
					<dim>8</dim>
					<dim>64</dim>
				</port>
			</output>
		</layer>
		<layer id="144" name="__module.model.model.decoder.layers.0.self_attn/prim::ListConstruct/Reshape_1_9" type="Const" version="opset1">
			<data element_type="i32" shape="1" offset="111341744" size="4" />
			<output>
				<port id="0" precision="I32">
					<dim>1</dim>
				</port>
			</output>
		</layer>
		<layer id="145" name="__module.model.model.decoder.layers.0.self_attn/prim::ListConstruct/Concat_9" type="Concat" version="opset1">
			<data axis="0" />
			<input>
				<port id="0" precision="I32">
					<dim>1</dim>
				</port>
				<port id="1" precision="I32">
					<dim>1</dim>
				</port>
				<port id="2" precision="I32">
					<dim>1</dim>
				</port>
			</input>
			<output>
				<port id="3" precision="I32" names="185">
					<dim>3</dim>
				</port>
			</output>
		</layer>
		<layer id="146" name="__module.model.model.decoder.layers.0.self_attn/aten::reshape/Reshape_2" type="Reshape" version="opset1">
			<data special_zero="false" />
			<input>
				<port id="0" precision="FP32">
					<dim>-1</dim>
					<dim>-1</dim>
					<dim>8</dim>
					<dim>64</dim>
				</port>
				<port id="1" precision="I32">
					<dim>3</dim>
				</port>
			</input>
			<output>
				<port id="2" precision="FP32" names="186,input.11">
					<dim>-1</dim>
					<dim>-1</dim>
					<dim>512</dim>
				</port>
			</output>
		</layer>
		<layer id="147" name="Constant_18425" type="Const" version="opset1">
			<data element_type="f32" shape="512, 512" offset="111341748" size="1048576" />
			<output>
				<port id="0" precision="FP32" names="188,weight.55">
					<dim>512</dim>
					<dim>512</dim>
				</port>
			</output>
		</layer>
		<layer id="148" name="__module.model.model.decoder.layers.0.self_attn.out_proj/aten::linear/MatMul" type="MatMul" version="opset1">
			<data transpose_a="false" transpose_b="true" />
			<input>
				<port id="0" precision="FP32">
					<dim>-1</dim>
					<dim>-1</dim>
					<dim>512</dim>
				</port>
				<port id="1" precision="FP32">
					<dim>512</dim>
					<dim>512</dim>
				</port>
			</input>
			<output>
				<port id="2" precision="FP32">
					<dim>-1</dim>
					<dim>-1</dim>
					<dim>512</dim>
				</port>
			</output>
		</layer>
		<layer id="149" name="Constant_78640" type="Const" version="opset1">
			<data element_type="f32" shape="1, 1, 512" offset="112390324" size="2048" />
			<output>
				<port id="0" precision="FP32">
					<dim>1</dim>
					<dim>1</dim>
					<dim>512</dim>
				</port>
			</output>
		</layer>
		<layer id="150" name="__module.model.model.decoder.layers.0.self_attn.out_proj/aten::linear/Add" type="Add" version="opset1">
			<data auto_broadcast="numpy" />
			<input>
				<port id="0" precision="FP32">
					<dim>-1</dim>
					<dim>-1</dim>
					<dim>512</dim>
				</port>
				<port id="1" precision="FP32">
					<dim>1</dim>
					<dim>1</dim>
					<dim>512</dim>
				</port>
			</input>
			<output>
				<port id="2" precision="FP32" names="189,191,input.13">
					<dim>-1</dim>
					<dim>-1</dim>
					<dim>512</dim>
				</port>
			</output>
		</layer>
		<layer id="151" name="__module.model.model.decoder.layers.0/aten::add/Add" type="Add" version="opset1">
			<data auto_broadcast="numpy" />
			<input>
				<port id="0" precision="FP32">
					<dim>-1</dim>
					<dim>-1</dim>
					<dim>512</dim>
				</port>
				<port id="1" precision="FP32">
					<dim>-1</dim>
					<dim>-1</dim>
					<dim>512</dim>
				</port>
			</input>
			<output>
				<port id="2" precision="FP32" names="195,input.15">
					<dim>-1</dim>
					<dim>-1</dim>
					<dim>512</dim>
				</port>
			</output>
		</layer>
		<layer id="152" name="__module.model.model.decoder.layers.0.encoder_attn_layer_norm/aten::layer_norm/Constant" type="Const" version="opset1">
			<data element_type="i32" shape="1" offset="107270144" size="4" />
			<output>
				<port id="0" precision="I32">
					<dim>1</dim>
				</port>
			</output>
		</layer>
		<layer id="153" name="__module.model.model.decoder.layers.0.encoder_attn_layer_norm/aten::layer_norm/MVN" type="MVN" version="opset6">
			<data eps="9.9999997473787516e-06" normalize_variance="true" eps_mode="INSIDE_SQRT" />
			<input>
				<port id="0" precision="FP32">
					<dim>-1</dim>
					<dim>-1</dim>
					<dim>512</dim>
				</port>
				<port id="1" precision="I32">
					<dim>1</dim>
				</port>
			</input>
			<output>
				<port id="2" precision="FP32">
					<dim>-1</dim>
					<dim>-1</dim>
					<dim>512</dim>
				</port>
			</output>
		</layer>
		<layer id="154" name="Constant_78641" type="Const" version="opset1">
			<data element_type="f32" shape="1, 1, 512" offset="112392372" size="2048" />
			<output>
				<port id="0" precision="FP32">
					<dim>1</dim>
					<dim>1</dim>
					<dim>512</dim>
				</port>
			</output>
		</layer>
		<layer id="155" name="__module.model.model.decoder.layers.0.encoder_attn_layer_norm/aten::layer_norm/Multiply" type="Multiply" version="opset1">
			<data auto_broadcast="numpy" />
			<input>
				<port id="0" precision="FP32">
					<dim>-1</dim>
					<dim>-1</dim>
					<dim>512</dim>
				</port>
				<port id="1" precision="FP32">
					<dim>1</dim>
					<dim>1</dim>
					<dim>512</dim>
				</port>
			</input>
			<output>
				<port id="2" precision="FP32">
					<dim>-1</dim>
					<dim>-1</dim>
					<dim>512</dim>
				</port>
			</output>
		</layer>
		<layer id="156" name="Constant_78642" type="Const" version="opset1">
			<data element_type="f32" shape="1, 1, 512" offset="112394420" size="2048" />
			<output>
				<port id="0" precision="FP32">
					<dim>1</dim>
					<dim>1</dim>
					<dim>512</dim>
				</port>
			</output>
		</layer>
		<layer id="157" name="__module.model.model.decoder.layers.0.encoder_attn_layer_norm/aten::layer_norm/Add" type="Add" version="opset1">
			<data auto_broadcast="numpy" />
			<input>
				<port id="0" precision="FP32">
					<dim>-1</dim>
					<dim>-1</dim>
					<dim>512</dim>
				</port>
				<port id="1" precision="FP32">
					<dim>1</dim>
					<dim>1</dim>
					<dim>512</dim>
				</port>
			</input>
			<output>
				<port id="2" precision="FP32" names="199,hidden_states.5">
					<dim>-1</dim>
					<dim>-1</dim>
					<dim>512</dim>
				</port>
			</output>
		</layer>
		<layer id="158" name="Constant_78291" type="Const" version="opset1">
			<data element_type="f32" shape="512, 512" offset="112396468" size="1048576" />
			<output>
				<port id="0" precision="FP32">
					<dim>512</dim>
					<dim>512</dim>
				</port>
			</output>
		</layer>
		<layer id="159" name="Multiply_78243" type="MatMul" version="opset1">
			<data transpose_a="false" transpose_b="true" />
			<input>
				<port id="0" precision="FP32">
					<dim>-1</dim>
					<dim>-1</dim>
					<dim>512</dim>
				</port>
				<port id="1" precision="FP32">
					<dim>512</dim>
					<dim>512</dim>
				</port>
			</input>
			<output>
				<port id="2" precision="FP32">
					<dim>-1</dim>
					<dim>-1</dim>
					<dim>512</dim>
				</port>
			</output>
		</layer>
		<layer id="160" name="Constant_78643" type="Const" version="opset1">
			<data element_type="f32" shape="1, 1, 512" offset="113445044" size="2048" />
			<output>
				<port id="0" precision="FP32">
					<dim>1</dim>
					<dim>1</dim>
					<dim>512</dim>
				</port>
			</output>
		</layer>
		<layer id="161" name="__module.model.model.decoder.layers.0.encoder_attn/aten::mul/Multiply" type="Add" version="opset1">
			<data auto_broadcast="numpy" />
			<input>
				<port id="0" precision="FP32">
					<dim>-1</dim>
					<dim>-1</dim>
					<dim>512</dim>
				</port>
				<port id="1" precision="FP32">
					<dim>1</dim>
					<dim>1</dim>
					<dim>512</dim>
				</port>
			</input>
			<output>
				<port id="2" precision="FP32" names="210,tensor.11">
					<dim>-1</dim>
					<dim>-1</dim>
					<dim>512</dim>
				</port>
			</output>
		</layer>
		<layer id="162" name="__module.model.model.decoder.layers.0.encoder_attn/aten::size/ShapeOf" type="ShapeOf" version="opset3">
			<data output_type="i32" />
			<input>
				<port id="0" precision="FP32">
					<dim>-1</dim>
					<dim>-1</dim>
					<dim>512</dim>
				</port>
			</input>
			<output>
				<port id="1" precision="I32">
					<dim>3</dim>
				</port>
			</output>
		</layer>
		<layer id="163" name="__module.model.model.decoder.layers.0.encoder_attn/aten::size/Constant" type="Const" version="opset1">
			<data element_type="i32" shape="" offset="107270152" size="4" />
			<output>
				<port id="0" precision="I32" />
			</output>
		</layer>
		<layer id="164" name="__module.model.model.decoder.layers.0.encoder_attn/aten::size/Gather" type="Gather" version="opset8">
			<data batch_dims="0" />
			<input>
				<port id="0" precision="I32">
					<dim>3</dim>
				</port>
				<port id="1" precision="I32" />
				<port id="2" precision="I32" />
			</input>
			<output>
				<port id="3" precision="I32" names="204" />
			</output>
		</layer>
		<layer id="165" name="Constant_148395" type="Const" version="opset1">
			<data element_type="i64" shape="1" offset="107270156" size="8" />
			<output>
				<port id="0" precision="I64">
					<dim>1</dim>
				</port>
			</output>
		</layer>
		<layer id="166" name="__module.model.model.decoder.layers.0.encoder_attn/prim::ListConstruct/Reshape" type="Reshape" version="opset1">
			<data special_zero="false" />
			<input>
				<port id="0" precision="I32" />
				<port id="1" precision="I64">
					<dim>1</dim>
				</port>
			</input>
			<output>
				<port id="2" precision="I32">
					<dim>1</dim>
				</port>
			</output>
		</layer>
		<layer id="167" name="Constant_75142" type="Const" version="opset1">
			<data element_type="i32" shape="1" offset="107270148" size="4" />
			<output>
				<port id="0" precision="I32">
					<dim>1</dim>
				</port>
			</output>
		</layer>
		<layer id="168" name="__module.model.model.decoder.layers.0.encoder_attn/aten::size/Constant_1" type="Const" version="opset1">
			<data element_type="i32" shape="" offset="107270152" size="4" />
			<output>
				<port id="0" precision="I32" />
			</output>
		</layer>
		<layer id="169" name="__module.model.model.decoder.layers.0.encoder_attn/aten::size/Gather_1" type="Gather" version="opset8">
			<data batch_dims="0" />
			<input>
				<port id="0" precision="I32">
					<dim>3</dim>
				</port>
				<port id="1" precision="I32">
					<dim>1</dim>
				</port>
				<port id="2" precision="I32" />
			</input>
			<output>
				<port id="3" precision="I32" names="206">
					<dim>1</dim>
				</port>
			</output>
		</layer>
		<layer id="170" name="__module.model.model.decoder.layers.0.encoder_attn/prim::ListConstruct/Reshape_1" type="Const" version="opset1">
			<data element_type="i32" shape="1" offset="109242388" size="4" />
			<output>
				<port id="0" precision="I32">
					<dim>1</dim>
				</port>
			</output>
		</layer>
		<layer id="171" name="__module.model.model.decoder.layers.0.encoder_attn/prim::ListConstruct/Reshape_2" type="Const" version="opset1">
			<data element_type="i32" shape="1" offset="109242392" size="4" />
			<output>
				<port id="0" precision="I32">
					<dim>1</dim>
				</port>
			</output>
		</layer>
		<layer id="172" name="__module.model.model.decoder.layers.0.encoder_attn/prim::ListConstruct/Concat" type="Concat" version="opset1">
			<data axis="0" />
			<input>
				<port id="0" precision="I32">
					<dim>1</dim>
				</port>
				<port id="1" precision="I32">
					<dim>1</dim>
				</port>
				<port id="2" precision="I32">
					<dim>1</dim>
				</port>
				<port id="3" precision="I32">
					<dim>1</dim>
				</port>
			</input>
			<output>
				<port id="4" precision="I32" names="228">
					<dim>4</dim>
				</port>
			</output>
		</layer>
		<layer id="173" name="__module.model.model.decoder.layers.0.encoder_attn/aten::view/Reshape" type="Reshape" version="opset1">
			<data special_zero="false" />
			<input>
				<port id="0" precision="FP32">
					<dim>-1</dim>
					<dim>-1</dim>
					<dim>512</dim>
				</port>
				<port id="1" precision="I32">
					<dim>4</dim>
				</port>
			</input>
			<output>
				<port id="2" precision="FP32" names="229">
					<dim>-1</dim>
					<dim>-1</dim>
					<dim>8</dim>
					<dim>64</dim>
				</port>
			</output>
		</layer>
		<layer id="174" name="__module.model.model.decoder.layers.0.encoder_attn/aten::transpose/ScatterElementsUpdate" type="Const" version="opset1">
			<data element_type="i32" shape="4" offset="109242396" size="16" />
			<output>
				<port id="0" precision="I32">
					<dim>4</dim>
				</port>
			</output>
		</layer>
		<layer id="175" name="__module.model.model.decoder.layers.0.encoder_attn/aten::transpose/Transpose" type="Transpose" version="opset1">
			<input>
				<port id="0" precision="FP32">
					<dim>-1</dim>
					<dim>-1</dim>
					<dim>8</dim>
					<dim>64</dim>
				</port>
				<port id="1" precision="I32">
					<dim>4</dim>
				</port>
			</input>
			<output>
				<port id="2" precision="FP32" names="230">
					<dim>-1</dim>
					<dim>8</dim>
					<dim>-1</dim>
					<dim>64</dim>
				</port>
			</output>
		</layer>
		<layer id="176" name="__module.model.model.decoder.layers.0.encoder_attn/aten::mul/Multiply_1" type="Multiply" version="opset1">
			<data auto_broadcast="numpy" />
			<input>
				<port id="0" precision="I32" />
				<port id="1" precision="I32" />
			</input>
			<output>
				<port id="2" precision="I32" names="224,225,226,227" />
			</output>
		</layer>
		<layer id="177" name="Constant_148396" type="Const" version="opset1">
			<data element_type="i64" shape="1" offset="107270156" size="8" />
			<output>
				<port id="0" precision="I64">
					<dim>1</dim>
				</port>
			</output>
		</layer>
		<layer id="178" name="__module.model.model.decoder.layers.0.encoder_attn/prim::ListConstruct/Reshape_3" type="Reshape" version="opset1">
			<data special_zero="false" />
			<input>
				<port id="0" precision="I32" />
				<port id="1" precision="I64">
					<dim>1</dim>
				</port>
			</input>
			<output>
				<port id="2" precision="I32">
					<dim>1</dim>
				</port>
			</output>
		</layer>
		<layer id="179" name="__module.model.model.decoder.layers.0.encoder_attn/prim::ListConstruct/Reshape_0_1" type="Const" version="opset1">
			<data element_type="i32" shape="1" offset="107270144" size="4" />
			<output>
				<port id="0" precision="I32">
					<dim>1</dim>
				</port>
			</output>
		</layer>
		<layer id="180" name="__module.model.model.decoder.layers.0.encoder_attn/prim::ListConstruct/Reshape_1_1" type="Const" version="opset1">
			<data element_type="i32" shape="1" offset="109242392" size="4" />
			<output>
				<port id="0" precision="I32">
					<dim>1</dim>
				</port>
			</output>
		</layer>
		<layer id="181" name="__module.model.model.decoder.layers.0.encoder_attn/prim::ListConstruct/Concat_1" type="Concat" version="opset1">
			<data axis="0" />
			<input>
				<port id="0" precision="I32">
					<dim>1</dim>
				</port>
				<port id="1" precision="I32">
					<dim>1</dim>
				</port>
				<port id="2" precision="I32">
					<dim>1</dim>
				</port>
			</input>
			<output>
				<port id="3" precision="I32" names="232,234,236">
					<dim>3</dim>
				</port>
			</output>
		</layer>
		<layer id="182" name="__module.model.model.decoder.layers.0.encoder_attn/aten::view/Reshape_1" type="Reshape" version="opset1">
			<data special_zero="false" />
			<input>
				<port id="0" precision="FP32">
					<dim>-1</dim>
					<dim>8</dim>
					<dim>-1</dim>
					<dim>64</dim>
				</port>
				<port id="1" precision="I32">
					<dim>3</dim>
				</port>
			</input>
			<output>
				<port id="2" precision="FP32" names="233,query_states.3">
					<dim>-1</dim>
					<dim>-1</dim>
					<dim>64</dim>
				</port>
			</output>
		</layer>
		<layer id="183" name="Constant_18464" type="Const" version="opset1">
			<data element_type="f32" shape="512, 512" offset="113447092" size="1048576" />
			<output>
				<port id="0" precision="FP32" names="211,weight.61">
					<dim>512</dim>
					<dim>512</dim>
				</port>
			</output>
		</layer>
		<layer id="184" name="__module.model.model.decoder.layers.0.encoder_attn.k_proj/aten::linear/MatMul" type="MatMul" version="opset1">
			<data transpose_a="false" transpose_b="true" />
			<input>
				<port id="0" precision="FP32">
					<dim>-1</dim>
					<dim>-1</dim>
					<dim>512</dim>
				</port>
				<port id="1" precision="FP32">
					<dim>512</dim>
					<dim>512</dim>
				</port>
			</input>
			<output>
				<port id="2" precision="FP32" names="212,tensor.7">
					<dim>-1</dim>
					<dim>-1</dim>
					<dim>512</dim>
				</port>
			</output>
		</layer>
		<layer id="185" name="__module.model.model.decoder.layers.0.encoder_attn/prim::ListConstruct/Reshape_0_2" type="Const" version="opset1">
			<data element_type="i32" shape="1" offset="107270144" size="4" />
			<output>
				<port id="0" precision="I32">
					<dim>1</dim>
				</port>
			</output>
		</layer>
		<layer id="186" name="__module.model.model.decoder.layers.0.encoder_attn/prim::ListConstruct/Reshape_1_2" type="Const" version="opset1">
			<data element_type="i32" shape="1" offset="109242388" size="4" />
			<output>
				<port id="0" precision="I32">
					<dim>1</dim>
				</port>
			</output>
		</layer>
		<layer id="187" name="__module.model.model.decoder.layers.0.encoder_attn/prim::ListConstruct/Reshape_2_1" type="Const" version="opset1">
			<data element_type="i32" shape="1" offset="109242392" size="4" />
			<output>
				<port id="0" precision="I32">
					<dim>1</dim>
				</port>
			</output>
		</layer>
		<layer id="188" name="__module.model.model.decoder.layers.0.encoder_attn/prim::ListConstruct/Concat_2" type="Concat" version="opset1">
			<data axis="0" />
			<input>
				<port id="0" precision="I32">
					<dim>1</dim>
				</port>
				<port id="1" precision="I32">
					<dim>1</dim>
				</port>
				<port id="2" precision="I32">
					<dim>1</dim>
				</port>
				<port id="3" precision="I32">
					<dim>1</dim>
				</port>
			</input>
			<output>
				<port id="4" precision="I32" names="213,220">
					<dim>4</dim>
				</port>
			</output>
		</layer>
		<layer id="189" name="__module.model.model.decoder.layers.0.encoder_attn/aten::view/Reshape_2" type="Reshape" version="opset1">
			<data special_zero="false" />
			<input>
				<port id="0" precision="FP32">
					<dim>-1</dim>
					<dim>-1</dim>
					<dim>512</dim>
				</port>
				<port id="1" precision="I32">
					<dim>4</dim>
				</port>
			</input>
			<output>
				<port id="2" precision="FP32" names="214">
					<dim>-1</dim>
					<dim>-1</dim>
					<dim>8</dim>
					<dim>64</dim>
				</port>
			</output>
		</layer>
		<layer id="190" name="__module.model.model.decoder.layers.0.encoder_attn/aten::transpose/ScatterElementsUpdate_1" type="Const" version="opset1">
			<data element_type="i32" shape="4" offset="109242396" size="16" />
			<output>
				<port id="0" precision="I32">
					<dim>4</dim>
				</port>
			</output>
		</layer>
		<layer id="191" name="__module.model.model.decoder.layers.0.encoder_attn/aten::transpose/Transpose_1" type="Transpose" version="opset1">
			<input>
				<port id="0" precision="FP32">
					<dim>-1</dim>
					<dim>-1</dim>
					<dim>8</dim>
					<dim>64</dim>
				</port>
				<port id="1" precision="I32">
					<dim>4</dim>
				</port>
			</input>
			<output>
				<port id="2" precision="FP32" names="present.0.encoder.key">
					<dim>-1</dim>
					<dim>8</dim>
					<dim>-1</dim>
					<dim>64</dim>
				</port>
			</output>
		</layer>
		<layer id="192" name="__module.model.model.decoder.layers.0.encoder_attn/aten::reshape/Reshape" type="Reshape" version="opset1">
			<data special_zero="false" />
			<input>
				<port id="0" precision="FP32">
					<dim>-1</dim>
					<dim>8</dim>
					<dim>-1</dim>
					<dim>64</dim>
				</port>
				<port id="1" precision="I32">
					<dim>3</dim>
				</port>
			</input>
			<output>
				<port id="2" precision="FP32" names="235,key_states.7">
					<dim>-1</dim>
					<dim>-1</dim>
					<dim>64</dim>
				</port>
			</output>
		</layer>
		<layer id="193" name="__module.model.model.decoder.layers.0.encoder_attn/aten::bmm/MatMul" type="MatMul" version="opset1">
			<data transpose_a="false" transpose_b="true" />
			<input>
				<port id="0" precision="FP32">
					<dim>-1</dim>
					<dim>-1</dim>
					<dim>64</dim>
				</port>
				<port id="1" precision="FP32">
					<dim>-1</dim>
					<dim>-1</dim>
					<dim>64</dim>
				</port>
			</input>
			<output>
				<port id="2" precision="FP32" names="239,attn_weights.7">
					<dim>-1</dim>
					<dim>-1</dim>
					<dim>-1</dim>
				</port>
			</output>
		</layer>
		<layer id="194" name="__module.model.model.decoder.layers.0.encoder_attn/aten::softmax/Softmax" type="SoftMax" version="opset8">
			<data axis="-1" />
			<input>
				<port id="0" precision="FP32">
					<dim>-1</dim>
					<dim>-1</dim>
					<dim>-1</dim>
				</port>
			</input>
			<output>
				<port id="1" precision="FP32" names="240,input.19">
					<dim>-1</dim>
					<dim>-1</dim>
					<dim>-1</dim>
				</port>
			</output>
		</layer>
		<layer id="195" name="Constant_18496" type="Const" version="opset1">
			<data element_type="f32" shape="512, 512" offset="114495668" size="1048576" />
			<output>
				<port id="0" precision="FP32" names="218,weight.63">
					<dim>512</dim>
					<dim>512</dim>
				</port>
			</output>
		</layer>
		<layer id="196" name="__module.model.model.decoder.layers.0.encoder_attn.v_proj/aten::linear/MatMul" type="MatMul" version="opset1">
			<data transpose_a="false" transpose_b="true" />
			<input>
				<port id="0" precision="FP32">
					<dim>-1</dim>
					<dim>-1</dim>
					<dim>512</dim>
				</port>
				<port id="1" precision="FP32">
					<dim>512</dim>
					<dim>512</dim>
				</port>
			</input>
			<output>
				<port id="2" precision="FP32">
					<dim>-1</dim>
					<dim>-1</dim>
					<dim>512</dim>
				</port>
			</output>
		</layer>
		<layer id="197" name="Constant_78644" type="Const" version="opset1">
			<data element_type="f32" shape="1, 1, 512" offset="115544244" size="2048" />
			<output>
				<port id="0" precision="FP32">
					<dim>1</dim>
					<dim>1</dim>
					<dim>512</dim>
				</port>
			</output>
		</layer>
		<layer id="198" name="__module.model.model.decoder.layers.0.encoder_attn.v_proj/aten::linear/Add" type="Add" version="opset1">
			<data auto_broadcast="numpy" />
			<input>
				<port id="0" precision="FP32">
					<dim>-1</dim>
					<dim>-1</dim>
					<dim>512</dim>
				</port>
				<port id="1" precision="FP32">
					<dim>1</dim>
					<dim>1</dim>
					<dim>512</dim>
				</port>
			</input>
			<output>
				<port id="2" precision="FP32" names="219,tensor.9">
					<dim>-1</dim>
					<dim>-1</dim>
					<dim>512</dim>
				</port>
			</output>
		</layer>
		<layer id="199" name="__module.model.model.decoder.layers.0.encoder_attn/aten::view/Reshape_3" type="Reshape" version="opset1">
			<data special_zero="false" />
			<input>
				<port id="0" precision="FP32">
					<dim>-1</dim>
					<dim>-1</dim>
					<dim>512</dim>
				</port>
				<port id="1" precision="I32">
					<dim>4</dim>
				</port>
			</input>
			<output>
				<port id="2" precision="FP32" names="221">
					<dim>-1</dim>
					<dim>-1</dim>
					<dim>8</dim>
					<dim>64</dim>
				</port>
			</output>
		</layer>
		<layer id="200" name="__module.model.model.decoder.layers.0.encoder_attn/aten::transpose/ScatterElementsUpdate_3" type="Const" version="opset1">
			<data element_type="i32" shape="4" offset="109242396" size="16" />
			<output>
				<port id="0" precision="I32">
					<dim>4</dim>
				</port>
			</output>
		</layer>
		<layer id="201" name="__module.model.model.decoder.layers.0.encoder_attn/aten::transpose/Transpose_3" type="Transpose" version="opset1">
			<input>
				<port id="0" precision="FP32">
					<dim>-1</dim>
					<dim>-1</dim>
					<dim>8</dim>
					<dim>64</dim>
				</port>
				<port id="1" precision="I32">
					<dim>4</dim>
				</port>
			</input>
			<output>
				<port id="2" precision="FP32" names="present.0.encoder.value">
					<dim>-1</dim>
					<dim>8</dim>
					<dim>-1</dim>
					<dim>64</dim>
				</port>
			</output>
		</layer>
		<layer id="202" name="__module.model.model.decoder.layers.0.encoder_attn/aten::reshape/Reshape_1" type="Reshape" version="opset1">
			<data special_zero="false" />
			<input>
				<port id="0" precision="FP32">
					<dim>-1</dim>
					<dim>8</dim>
					<dim>-1</dim>
					<dim>64</dim>
				</port>
				<port id="1" precision="I32">
					<dim>3</dim>
				</port>
			</input>
			<output>
				<port id="2" precision="FP32" names="237,value_states.7">
					<dim>-1</dim>
					<dim>-1</dim>
					<dim>64</dim>
				</port>
			</output>
		</layer>
		<layer id="203" name="__module.model.model.decoder.layers.0.encoder_attn/aten::bmm/MatMul_1" type="MatMul" version="opset1">
			<data transpose_a="false" transpose_b="false" />
			<input>
				<port id="0" precision="FP32">
					<dim>-1</dim>
					<dim>-1</dim>
					<dim>-1</dim>
				</port>
				<port id="1" precision="FP32">
					<dim>-1</dim>
					<dim>-1</dim>
					<dim>64</dim>
				</port>
			</input>
			<output>
				<port id="2" precision="FP32" names="242,attn_output.7">
					<dim>-1</dim>
					<dim>-1</dim>
					<dim>64</dim>
				</port>
			</output>
		</layer>
		<layer id="204" name="__module.model.model.decoder.layers.0.encoder_attn/prim::ListConstruct/Reshape_0_6" type="Const" version="opset1">
			<data element_type="i32" shape="1" offset="109242388" size="4" />
			<output>
				<port id="0" precision="I32">
					<dim>1</dim>
				</port>
			</output>
		</layer>
		<layer id="205" name="__module.model.model.decoder.layers.0.encoder_attn/prim::ListConstruct/Reshape_2_3" type="Const" version="opset1">
			<data element_type="i32" shape="1" offset="109242392" size="4" />
			<output>
				<port id="0" precision="I32">
					<dim>1</dim>
				</port>
			</output>
		</layer>
		<layer id="206" name="__module.model.model.decoder.layers.0.encoder_attn/prim::ListConstruct/Concat_6" type="Concat" version="opset1">
			<data axis="0" />
			<input>
				<port id="0" precision="I32">
					<dim>1</dim>
				</port>
				<port id="1" precision="I32">
					<dim>1</dim>
				</port>
				<port id="2" precision="I32">
					<dim>1</dim>
				</port>
				<port id="3" precision="I32">
					<dim>1</dim>
				</port>
			</input>
			<output>
				<port id="4" precision="I32" names="243">
					<dim>4</dim>
				</port>
			</output>
		</layer>
		<layer id="207" name="__module.model.model.decoder.layers.0.encoder_attn/aten::view/Reshape_4" type="Reshape" version="opset1">
			<data special_zero="false" />
			<input>
				<port id="0" precision="FP32">
					<dim>-1</dim>
					<dim>-1</dim>
					<dim>64</dim>
				</port>
				<port id="1" precision="I32">
					<dim>4</dim>
				</port>
			</input>
			<output>
				<port id="2" precision="FP32" names="244,attn_output.9">
					<dim>-1</dim>
					<dim>8</dim>
					<dim>-1</dim>
					<dim>64</dim>
				</port>
			</output>
		</layer>
		<layer id="208" name="__module.model.model.decoder.layers.0.encoder_attn/aten::transpose/ScatterElementsUpdate_4" type="Const" version="opset1">
			<data element_type="i32" shape="4" offset="109242396" size="16" />
			<output>
				<port id="0" precision="I32">
					<dim>4</dim>
				</port>
			</output>
		</layer>
		<layer id="209" name="__module.model.model.decoder.layers.0.encoder_attn/aten::transpose/Transpose_4" type="Transpose" version="opset1">
			<input>
				<port id="0" precision="FP32">
					<dim>-1</dim>
					<dim>8</dim>
					<dim>-1</dim>
					<dim>64</dim>
				</port>
				<port id="1" precision="I32">
					<dim>4</dim>
				</port>
			</input>
			<output>
				<port id="2" precision="FP32" names="245,attn_output.11">
					<dim>-1</dim>
					<dim>-1</dim>
					<dim>8</dim>
					<dim>64</dim>
				</port>
			</output>
		</layer>
		<layer id="210" name="__module.model.model.decoder.layers.0.encoder_attn/prim::ListConstruct/Reshape_1_7" type="Const" version="opset1">
			<data element_type="i32" shape="1" offset="111341744" size="4" />
			<output>
				<port id="0" precision="I32">
					<dim>1</dim>
				</port>
			</output>
		</layer>
		<layer id="211" name="__module.model.model.decoder.layers.0.encoder_attn/prim::ListConstruct/Concat_7" type="Concat" version="opset1">
			<data axis="0" />
			<input>
				<port id="0" precision="I32">
					<dim>1</dim>
				</port>
				<port id="1" precision="I32">
					<dim>1</dim>
				</port>
				<port id="2" precision="I32">
					<dim>1</dim>
				</port>
			</input>
			<output>
				<port id="3" precision="I32" names="246">
					<dim>3</dim>
				</port>
			</output>
		</layer>
		<layer id="212" name="__module.model.model.decoder.layers.0.encoder_attn/aten::reshape/Reshape_2" type="Reshape" version="opset1">
			<data special_zero="false" />
			<input>
				<port id="0" precision="FP32">
					<dim>-1</dim>
					<dim>-1</dim>
					<dim>8</dim>
					<dim>64</dim>
				</port>
				<port id="1" precision="I32">
					<dim>3</dim>
				</port>
			</input>
			<output>
				<port id="2" precision="FP32" names="247,input.21">
					<dim>-1</dim>
					<dim>-1</dim>
					<dim>512</dim>
				</port>
			</output>
		</layer>
		<layer id="213" name="Constant_18626" type="Const" version="opset1">
			<data element_type="f32" shape="512, 512" offset="115546292" size="1048576" />
			<output>
				<port id="0" precision="FP32" names="249,weight.65">
					<dim>512</dim>
					<dim>512</dim>
				</port>
			</output>
		</layer>
		<layer id="214" name="__module.model.model.decoder.layers.0.encoder_attn.out_proj/aten::linear/MatMul" type="MatMul" version="opset1">
			<data transpose_a="false" transpose_b="true" />
			<input>
				<port id="0" precision="FP32">
					<dim>-1</dim>
					<dim>-1</dim>
					<dim>512</dim>
				</port>
				<port id="1" precision="FP32">
					<dim>512</dim>
					<dim>512</dim>
				</port>
			</input>
			<output>
				<port id="2" precision="FP32">
					<dim>-1</dim>
					<dim>-1</dim>
					<dim>512</dim>
				</port>
			</output>
		</layer>
		<layer id="215" name="Constant_78645" type="Const" version="opset1">
			<data element_type="f32" shape="1, 1, 512" offset="116594868" size="2048" />
			<output>
				<port id="0" precision="FP32">
					<dim>1</dim>
					<dim>1</dim>
					<dim>512</dim>
				</port>
			</output>
		</layer>
		<layer id="216" name="__module.model.model.decoder.layers.0.encoder_attn.out_proj/aten::linear/Add" type="Add" version="opset1">
			<data auto_broadcast="numpy" />
			<input>
				<port id="0" precision="FP32">
					<dim>-1</dim>
					<dim>-1</dim>
					<dim>512</dim>
				</port>
				<port id="1" precision="FP32">
					<dim>1</dim>
					<dim>1</dim>
					<dim>512</dim>
				</port>
			</input>
			<output>
				<port id="2" precision="FP32" names="250,252,input.23">
					<dim>-1</dim>
					<dim>-1</dim>
					<dim>512</dim>
				</port>
			</output>
		</layer>
		<layer id="217" name="__module.model.model.decoder.layers.0/aten::add/Add_1" type="Add" version="opset1">
			<data auto_broadcast="numpy" />
			<input>
				<port id="0" precision="FP32">
					<dim>-1</dim>
					<dim>-1</dim>
					<dim>512</dim>
				</port>
				<port id="1" precision="FP32">
					<dim>-1</dim>
					<dim>-1</dim>
					<dim>512</dim>
				</port>
			</input>
			<output>
				<port id="2" precision="FP32" names="256,input.25">
					<dim>-1</dim>
					<dim>-1</dim>
					<dim>512</dim>
				</port>
			</output>
		</layer>
		<layer id="218" name="__module.model.model.decoder.layers.0.final_layer_norm/aten::layer_norm/Constant" type="Const" version="opset1">
			<data element_type="i32" shape="1" offset="107270144" size="4" />
			<output>
				<port id="0" precision="I32">
					<dim>1</dim>
				</port>
			</output>
		</layer>
		<layer id="219" name="__module.model.model.decoder.layers.0.final_layer_norm/aten::layer_norm/MVN" type="MVN" version="opset6">
			<data eps="9.9999997473787516e-06" normalize_variance="true" eps_mode="INSIDE_SQRT" />
			<input>
				<port id="0" precision="FP32">
					<dim>-1</dim>
					<dim>-1</dim>
					<dim>512</dim>
				</port>
				<port id="1" precision="I32">
					<dim>1</dim>
				</port>
			</input>
			<output>
				<port id="2" precision="FP32">
					<dim>-1</dim>
					<dim>-1</dim>
					<dim>512</dim>
				</port>
			</output>
		</layer>
		<layer id="220" name="Constant_78646" type="Const" version="opset1">
			<data element_type="f32" shape="1, 1, 512" offset="116596916" size="2048" />
			<output>
				<port id="0" precision="FP32">
					<dim>1</dim>
					<dim>1</dim>
					<dim>512</dim>
				</port>
			</output>
		</layer>
		<layer id="221" name="__module.model.model.decoder.layers.0.final_layer_norm/aten::layer_norm/Multiply" type="Multiply" version="opset1">
			<data auto_broadcast="numpy" />
			<input>
				<port id="0" precision="FP32">
					<dim>-1</dim>
					<dim>-1</dim>
					<dim>512</dim>
				</port>
				<port id="1" precision="FP32">
					<dim>1</dim>
					<dim>1</dim>
					<dim>512</dim>
				</port>
			</input>
			<output>
				<port id="2" precision="FP32">
					<dim>-1</dim>
					<dim>-1</dim>
					<dim>512</dim>
				</port>
			</output>
		</layer>
		<layer id="222" name="Constant_78647" type="Const" version="opset1">
			<data element_type="f32" shape="1, 1, 512" offset="116598964" size="2048" />
			<output>
				<port id="0" precision="FP32">
					<dim>1</dim>
					<dim>1</dim>
					<dim>512</dim>
				</port>
			</output>
		</layer>
		<layer id="223" name="__module.model.model.decoder.layers.0.final_layer_norm/aten::layer_norm/Add" type="Add" version="opset1">
			<data auto_broadcast="numpy" />
			<input>
				<port id="0" precision="FP32">
					<dim>-1</dim>
					<dim>-1</dim>
					<dim>512</dim>
				</port>
				<port id="1" precision="FP32">
					<dim>1</dim>
					<dim>1</dim>
					<dim>512</dim>
				</port>
			</input>
			<output>
				<port id="2" precision="FP32" names="260,input.27">
					<dim>-1</dim>
					<dim>-1</dim>
					<dim>512</dim>
				</port>
			</output>
		</layer>
		<layer id="224" name="Constant_18650" type="Const" version="opset1">
			<data element_type="f32" shape="2048, 512" offset="116601012" size="4194304" />
			<output>
				<port id="0" precision="FP32" names="262,weight.69">
					<dim>2048</dim>
					<dim>512</dim>
				</port>
			</output>
		</layer>
		<layer id="225" name="__module.model.model.decoder.layers.0.fc1/aten::linear/MatMul" type="MatMul" version="opset1">
			<data transpose_a="false" transpose_b="true" />
			<input>
				<port id="0" precision="FP32">
					<dim>-1</dim>
					<dim>-1</dim>
					<dim>512</dim>
				</port>
				<port id="1" precision="FP32">
					<dim>2048</dim>
					<dim>512</dim>
				</port>
			</input>
			<output>
				<port id="2" precision="FP32">
					<dim>-1</dim>
					<dim>-1</dim>
					<dim>2048</dim>
				</port>
			</output>
		</layer>
		<layer id="226" name="Constant_78648" type="Const" version="opset1">
			<data element_type="f32" shape="1, 1, 2048" offset="120795316" size="8192" />
			<output>
				<port id="0" precision="FP32">
					<dim>1</dim>
					<dim>1</dim>
					<dim>2048</dim>
				</port>
			</output>
		</layer>
		<layer id="227" name="__module.model.model.decoder.layers.0.fc1/aten::linear/Add" type="Add" version="opset1">
			<data auto_broadcast="numpy" />
			<input>
				<port id="0" precision="FP32">
					<dim>-1</dim>
					<dim>-1</dim>
					<dim>2048</dim>
				</port>
				<port id="1" precision="FP32">
					<dim>1</dim>
					<dim>1</dim>
					<dim>2048</dim>
				</port>
			</input>
			<output>
				<port id="2" precision="FP32" names="263,input.29">
					<dim>-1</dim>
					<dim>-1</dim>
					<dim>2048</dim>
				</port>
			</output>
		</layer>
		<layer id="228" name="__module.model.model.decoder.layers.0.activation_fn/aten::gelu/Gelu" type="Gelu" version="opset7">
			<data approximation_mode="ERF" />
			<input>
				<port id="0" precision="FP32">
					<dim>-1</dim>
					<dim>-1</dim>
					<dim>2048</dim>
				</port>
			</input>
			<output>
				<port id="1" precision="FP32" names="264,input.31">
					<dim>-1</dim>
					<dim>-1</dim>
					<dim>2048</dim>
				</port>
			</output>
		</layer>
		<layer id="229" name="Constant_18657" type="Const" version="opset1">
			<data element_type="f32" shape="512, 2048" offset="120803508" size="4194304" />
			<output>
				<port id="0" precision="FP32" names="267,weight.71">
					<dim>512</dim>
					<dim>2048</dim>
				</port>
			</output>
		</layer>
		<layer id="230" name="__module.model.model.decoder.layers.0.fc2/aten::linear/MatMul" type="MatMul" version="opset1">
			<data transpose_a="false" transpose_b="true" />
			<input>
				<port id="0" precision="FP32">
					<dim>-1</dim>
					<dim>-1</dim>
					<dim>2048</dim>
				</port>
				<port id="1" precision="FP32">
					<dim>512</dim>
					<dim>2048</dim>
				</port>
			</input>
			<output>
				<port id="2" precision="FP32">
					<dim>-1</dim>
					<dim>-1</dim>
					<dim>512</dim>
				</port>
			</output>
		</layer>
		<layer id="231" name="Constant_78649" type="Const" version="opset1">
			<data element_type="f32" shape="1, 1, 512" offset="124997812" size="2048" />
			<output>
				<port id="0" precision="FP32">
					<dim>1</dim>
					<dim>1</dim>
					<dim>512</dim>
				</port>
			</output>
		</layer>
		<layer id="232" name="__module.model.model.decoder.layers.0.fc2/aten::linear/Add" type="Add" version="opset1">
			<data auto_broadcast="numpy" />
			<input>
				<port id="0" precision="FP32">
					<dim>-1</dim>
					<dim>-1</dim>
					<dim>512</dim>
				</port>
				<port id="1" precision="FP32">
					<dim>1</dim>
					<dim>1</dim>
					<dim>512</dim>
				</port>
			</input>
			<output>
				<port id="2" precision="FP32" names="268,input.35">
					<dim>-1</dim>
					<dim>-1</dim>
					<dim>512</dim>
				</port>
			</output>
		</layer>
		<layer id="233" name="__module.model.model.decoder.layers.0/aten::add/Add_2" type="Add" version="opset1">
			<data auto_broadcast="numpy" />
			<input>
				<port id="0" precision="FP32">
					<dim>-1</dim>
					<dim>-1</dim>
					<dim>512</dim>
				</port>
				<port id="1" precision="FP32">
					<dim>-1</dim>
					<dim>-1</dim>
					<dim>512</dim>
				</port>
			</input>
			<output>
				<port id="2" precision="FP32" names="270,272,input.37">
					<dim>-1</dim>
					<dim>-1</dim>
					<dim>512</dim>
				</port>
			</output>
		</layer>
		<layer id="234" name="__module.model.model.decoder.layers.1.self_attn_layer_norm/aten::layer_norm/Constant" type="Const" version="opset1">
			<data element_type="i32" shape="1" offset="107270144" size="4" />
			<output>
				<port id="0" precision="I32">
					<dim>1</dim>
				</port>
			</output>
		</layer>
		<layer id="235" name="__module.model.model.decoder.layers.1.self_attn_layer_norm/aten::layer_norm/MVN" type="MVN" version="opset6">
			<data eps="9.9999997473787516e-06" normalize_variance="true" eps_mode="INSIDE_SQRT" />
			<input>
				<port id="0" precision="FP32">
					<dim>-1</dim>
					<dim>-1</dim>
					<dim>512</dim>
				</port>
				<port id="1" precision="I32">
					<dim>1</dim>
				</port>
			</input>
			<output>
				<port id="2" precision="FP32">
					<dim>-1</dim>
					<dim>-1</dim>
					<dim>512</dim>
				</port>
			</output>
		</layer>
		<layer id="236" name="Constant_78650" type="Const" version="opset1">
			<data element_type="f32" shape="1, 1, 512" offset="124999860" size="2048" />
			<output>
				<port id="0" precision="FP32">
					<dim>1</dim>
					<dim>1</dim>
					<dim>512</dim>
				</port>
			</output>
		</layer>
		<layer id="237" name="__module.model.model.decoder.layers.1.self_attn_layer_norm/aten::layer_norm/Multiply" type="Multiply" version="opset1">
			<data auto_broadcast="numpy" />
			<input>
				<port id="0" precision="FP32">
					<dim>-1</dim>
					<dim>-1</dim>
					<dim>512</dim>
				</port>
				<port id="1" precision="FP32">
					<dim>1</dim>
					<dim>1</dim>
					<dim>512</dim>
				</port>
			</input>
			<output>
				<port id="2" precision="FP32">
					<dim>-1</dim>
					<dim>-1</dim>
					<dim>512</dim>
				</port>
			</output>
		</layer>
		<layer id="238" name="Constant_78651" type="Const" version="opset1">
			<data element_type="f32" shape="1, 1, 512" offset="125001908" size="2048" />
			<output>
				<port id="0" precision="FP32">
					<dim>1</dim>
					<dim>1</dim>
					<dim>512</dim>
				</port>
			</output>
		</layer>
		<layer id="239" name="__module.model.model.decoder.layers.1.self_attn_layer_norm/aten::layer_norm/Add" type="Add" version="opset1">
			<data auto_broadcast="numpy" />
			<input>
				<port id="0" precision="FP32">
					<dim>-1</dim>
					<dim>-1</dim>
					<dim>512</dim>
				</port>
				<port id="1" precision="FP32">
					<dim>1</dim>
					<dim>1</dim>
					<dim>512</dim>
				</port>
			</input>
			<output>
				<port id="2" precision="FP32" names="287,hidden_states.11">
					<dim>-1</dim>
					<dim>-1</dim>
					<dim>512</dim>
				</port>
			</output>
		</layer>
		<layer id="240" name="Constant_78294" type="Const" version="opset1">
			<data element_type="f32" shape="512, 512" offset="125003956" size="1048576" />
			<output>
				<port id="0" precision="FP32">
					<dim>512</dim>
					<dim>512</dim>
				</port>
			</output>
		</layer>
		<layer id="241" name="Multiply_78247" type="MatMul" version="opset1">
			<data transpose_a="false" transpose_b="true" />
			<input>
				<port id="0" precision="FP32">
					<dim>-1</dim>
					<dim>-1</dim>
					<dim>512</dim>
				</port>
				<port id="1" precision="FP32">
					<dim>512</dim>
					<dim>512</dim>
				</port>
			</input>
			<output>
				<port id="2" precision="FP32">
					<dim>-1</dim>
					<dim>-1</dim>
					<dim>512</dim>
				</port>
			</output>
		</layer>
		<layer id="242" name="Constant_78652" type="Const" version="opset1">
			<data element_type="f32" shape="1, 1, 512" offset="126052532" size="2048" />
			<output>
				<port id="0" precision="FP32">
					<dim>1</dim>
					<dim>1</dim>
					<dim>512</dim>
				</port>
			</output>
		</layer>
		<layer id="243" name="__module.model.model.decoder.layers.1.self_attn/aten::mul/Multiply" type="Add" version="opset1">
			<data auto_broadcast="numpy" />
			<input>
				<port id="0" precision="FP32">
					<dim>-1</dim>
					<dim>-1</dim>
					<dim>512</dim>
				</port>
				<port id="1" precision="FP32">
					<dim>1</dim>
					<dim>1</dim>
					<dim>512</dim>
				</port>
			</input>
			<output>
				<port id="2" precision="FP32" names="298,tensor.17">
					<dim>-1</dim>
					<dim>-1</dim>
					<dim>512</dim>
				</port>
			</output>
		</layer>
		<layer id="244" name="__module.model.model.decoder.layers.1.self_attn/aten::size/ShapeOf" type="ShapeOf" version="opset3">
			<data output_type="i32" />
			<input>
				<port id="0" precision="FP32">
					<dim>-1</dim>
					<dim>-1</dim>
					<dim>512</dim>
				</port>
			</input>
			<output>
				<port id="1" precision="I32">
					<dim>3</dim>
				</port>
			</output>
		</layer>
		<layer id="245" name="__module.model.model.decoder.layers.1.self_attn/aten::size/Constant" type="Const" version="opset1">
			<data element_type="i32" shape="" offset="107270152" size="4" />
			<output>
				<port id="0" precision="I32" />
			</output>
		</layer>
		<layer id="246" name="__module.model.model.decoder.layers.1.self_attn/aten::size/Gather" type="Gather" version="opset8">
			<data batch_dims="0" />
			<input>
				<port id="0" precision="I32">
					<dim>3</dim>
				</port>
				<port id="1" precision="I32" />
				<port id="2" precision="I32" />
			</input>
			<output>
				<port id="3" precision="I32" names="292" />
			</output>
		</layer>
		<layer id="247" name="Constant_148397" type="Const" version="opset1">
			<data element_type="i64" shape="1" offset="107270156" size="8" />
			<output>
				<port id="0" precision="I64">
					<dim>1</dim>
				</port>
			</output>
		</layer>
		<layer id="248" name="__module.model.model.decoder.layers.1.self_attn/prim::ListConstruct/Reshape" type="Reshape" version="opset1">
			<data special_zero="false" />
			<input>
				<port id="0" precision="I32" />
				<port id="1" precision="I64">
					<dim>1</dim>
				</port>
			</input>
			<output>
				<port id="2" precision="I32">
					<dim>1</dim>
				</port>
			</output>
		</layer>
		<layer id="249" name="Constant_75145" type="Const" version="opset1">
			<data element_type="i32" shape="1" offset="107270148" size="4" />
			<output>
				<port id="0" precision="I32">
					<dim>1</dim>
				</port>
			</output>
		</layer>
		<layer id="250" name="__module.model.model.decoder.layers.1.self_attn/aten::size/Constant_1" type="Const" version="opset1">
			<data element_type="i32" shape="" offset="107270152" size="4" />
			<output>
				<port id="0" precision="I32" />
			</output>
		</layer>
		<layer id="251" name="__module.model.model.decoder.layers.1.self_attn/aten::size/Gather_1" type="Gather" version="opset8">
			<data batch_dims="0" />
			<input>
				<port id="0" precision="I32">
					<dim>3</dim>
				</port>
				<port id="1" precision="I32">
					<dim>1</dim>
				</port>
				<port id="2" precision="I32" />
			</input>
			<output>
				<port id="3" precision="I32" names="294">
					<dim>1</dim>
				</port>
			</output>
		</layer>
		<layer id="252" name="__module.model.model.decoder.layers.1.self_attn/prim::ListConstruct/Reshape_1" type="Const" version="opset1">
			<data element_type="i32" shape="1" offset="109242388" size="4" />
			<output>
				<port id="0" precision="I32">
					<dim>1</dim>
				</port>
			</output>
		</layer>
		<layer id="253" name="__module.model.model.decoder.layers.1.self_attn/prim::ListConstruct/Reshape_2" type="Const" version="opset1">
			<data element_type="i32" shape="1" offset="109242392" size="4" />
			<output>
				<port id="0" precision="I32">
					<dim>1</dim>
				</port>
			</output>
		</layer>
		<layer id="254" name="__module.model.model.decoder.layers.1.self_attn/prim::ListConstruct/Concat" type="Concat" version="opset1">
			<data axis="0" />
			<input>
				<port id="0" precision="I32">
					<dim>1</dim>
				</port>
				<port id="1" precision="I32">
					<dim>1</dim>
				</port>
				<port id="2" precision="I32">
					<dim>1</dim>
				</port>
				<port id="3" precision="I32">
					<dim>1</dim>
				</port>
			</input>
			<output>
				<port id="4" precision="I32" names="316">
					<dim>4</dim>
				</port>
			</output>
		</layer>
		<layer id="255" name="__module.model.model.decoder.layers.1.self_attn/aten::view/Reshape" type="Reshape" version="opset1">
			<data special_zero="false" />
			<input>
				<port id="0" precision="FP32">
					<dim>-1</dim>
					<dim>-1</dim>
					<dim>512</dim>
				</port>
				<port id="1" precision="I32">
					<dim>4</dim>
				</port>
			</input>
			<output>
				<port id="2" precision="FP32" names="317">
					<dim>-1</dim>
					<dim>-1</dim>
					<dim>8</dim>
					<dim>64</dim>
				</port>
			</output>
		</layer>
		<layer id="256" name="__module.model.model.decoder.layers.1.self_attn/aten::transpose/ScatterElementsUpdate" type="Const" version="opset1">
			<data element_type="i32" shape="4" offset="109242396" size="16" />
			<output>
				<port id="0" precision="I32">
					<dim>4</dim>
				</port>
			</output>
		</layer>
		<layer id="257" name="__module.model.model.decoder.layers.1.self_attn/aten::transpose/Transpose" type="Transpose" version="opset1">
			<input>
				<port id="0" precision="FP32">
					<dim>-1</dim>
					<dim>-1</dim>
					<dim>8</dim>
					<dim>64</dim>
				</port>
				<port id="1" precision="I32">
					<dim>4</dim>
				</port>
			</input>
			<output>
				<port id="2" precision="FP32" names="318">
					<dim>-1</dim>
					<dim>8</dim>
					<dim>-1</dim>
					<dim>64</dim>
				</port>
			</output>
		</layer>
		<layer id="258" name="__module.model.model.decoder.layers.1.self_attn/aten::mul/Multiply_1" type="Multiply" version="opset1">
			<data auto_broadcast="numpy" />
			<input>
				<port id="0" precision="I32" />
				<port id="1" precision="I32" />
			</input>
			<output>
				<port id="2" precision="I32" names="312,313,314,315,332,333" />
			</output>
		</layer>
		<layer id="259" name="Constant_148398" type="Const" version="opset1">
			<data element_type="i64" shape="1" offset="107270156" size="8" />
			<output>
				<port id="0" precision="I64">
					<dim>1</dim>
				</port>
			</output>
		</layer>
		<layer id="260" name="__module.model.model.decoder.layers.1.self_attn/prim::ListConstruct/Reshape_3" type="Reshape" version="opset1">
			<data special_zero="false" />
			<input>
				<port id="0" precision="I32" />
				<port id="1" precision="I64">
					<dim>1</dim>
				</port>
			</input>
			<output>
				<port id="2" precision="I32">
					<dim>1</dim>
				</port>
			</output>
		</layer>
		<layer id="261" name="__module.model.model.decoder.layers.1.self_attn/prim::ListConstruct/Reshape_0_1" type="Const" version="opset1">
			<data element_type="i32" shape="1" offset="107270144" size="4" />
			<output>
				<port id="0" precision="I32">
					<dim>1</dim>
				</port>
			</output>
		</layer>
		<layer id="262" name="__module.model.model.decoder.layers.1.self_attn/prim::ListConstruct/Reshape_1_1" type="Const" version="opset1">
			<data element_type="i32" shape="1" offset="109242392" size="4" />
			<output>
				<port id="0" precision="I32">
					<dim>1</dim>
				</port>
			</output>
		</layer>
		<layer id="263" name="__module.model.model.decoder.layers.1.self_attn/prim::ListConstruct/Concat_1" type="Concat" version="opset1">
			<data axis="0" />
			<input>
				<port id="0" precision="I32">
					<dim>1</dim>
				</port>
				<port id="1" precision="I32">
					<dim>1</dim>
				</port>
				<port id="2" precision="I32">
					<dim>1</dim>
				</port>
			</input>
			<output>
				<port id="3" precision="I32" names="320,322,324">
					<dim>3</dim>
				</port>
			</output>
		</layer>
		<layer id="264" name="__module.model.model.decoder.layers.1.self_attn/aten::view/Reshape_1" type="Reshape" version="opset1">
			<data special_zero="false" />
			<input>
				<port id="0" precision="FP32">
					<dim>-1</dim>
					<dim>8</dim>
					<dim>-1</dim>
					<dim>64</dim>
				</port>
				<port id="1" precision="I32">
					<dim>3</dim>
				</port>
			</input>
			<output>
				<port id="2" precision="FP32" names="321,query_states.5">
					<dim>-1</dim>
					<dim>-1</dim>
					<dim>64</dim>
				</port>
			</output>
		</layer>
		<layer id="265" name="Constant_18703" type="Const" version="opset1">
			<data element_type="f32" shape="512, 512" offset="126054580" size="1048576" />
			<output>
				<port id="0" precision="FP32" names="299,weight.77">
					<dim>512</dim>
					<dim>512</dim>
				</port>
			</output>
		</layer>
		<layer id="266" name="__module.model.model.decoder.layers.1.self_attn.k_proj/aten::linear/MatMul" type="MatMul" version="opset1">
			<data transpose_a="false" transpose_b="true" />
			<input>
				<port id="0" precision="FP32">
					<dim>-1</dim>
					<dim>-1</dim>
					<dim>512</dim>
				</port>
				<port id="1" precision="FP32">
					<dim>512</dim>
					<dim>512</dim>
				</port>
			</input>
			<output>
				<port id="2" precision="FP32" names="300,tensor.13">
					<dim>-1</dim>
					<dim>-1</dim>
					<dim>512</dim>
				</port>
			</output>
		</layer>
		<layer id="267" name="__module.model.model.decoder.layers.1.self_attn/prim::ListConstruct/Reshape_0_2" type="Const" version="opset1">
			<data element_type="i32" shape="1" offset="107270144" size="4" />
			<output>
				<port id="0" precision="I32">
					<dim>1</dim>
				</port>
			</output>
		</layer>
		<layer id="268" name="__module.model.model.decoder.layers.1.self_attn/prim::ListConstruct/Reshape_1_2" type="Const" version="opset1">
			<data element_type="i32" shape="1" offset="109242388" size="4" />
			<output>
				<port id="0" precision="I32">
					<dim>1</dim>
				</port>
			</output>
		</layer>
		<layer id="269" name="__module.model.model.decoder.layers.1.self_attn/prim::ListConstruct/Reshape_2_1" type="Const" version="opset1">
			<data element_type="i32" shape="1" offset="109242392" size="4" />
			<output>
				<port id="0" precision="I32">
					<dim>1</dim>
				</port>
			</output>
		</layer>
		<layer id="270" name="__module.model.model.decoder.layers.1.self_attn/prim::ListConstruct/Concat_2" type="Concat" version="opset1">
			<data axis="0" />
			<input>
				<port id="0" precision="I32">
					<dim>1</dim>
				</port>
				<port id="1" precision="I32">
					<dim>1</dim>
				</port>
				<port id="2" precision="I32">
					<dim>1</dim>
				</port>
				<port id="3" precision="I32">
					<dim>1</dim>
				</port>
			</input>
			<output>
				<port id="4" precision="I32" names="301,308">
					<dim>4</dim>
				</port>
			</output>
		</layer>
		<layer id="271" name="__module.model.model.decoder.layers.1.self_attn/aten::view/Reshape_2" type="Reshape" version="opset1">
			<data special_zero="false" />
			<input>
				<port id="0" precision="FP32">
					<dim>-1</dim>
					<dim>-1</dim>
					<dim>512</dim>
				</port>
				<port id="1" precision="I32">
					<dim>4</dim>
				</port>
			</input>
			<output>
				<port id="2" precision="FP32" names="302">
					<dim>-1</dim>
					<dim>-1</dim>
					<dim>8</dim>
					<dim>64</dim>
				</port>
			</output>
		</layer>
		<layer id="272" name="__module.model.model.decoder.layers.1.self_attn/aten::transpose/ScatterElementsUpdate_1" type="Const" version="opset1">
			<data element_type="i32" shape="4" offset="109242396" size="16" />
			<output>
				<port id="0" precision="I32">
					<dim>4</dim>
				</port>
			</output>
		</layer>
		<layer id="273" name="__module.model.model.decoder.layers.1.self_attn/aten::transpose/Transpose_1" type="Transpose" version="opset1">
			<input>
				<port id="0" precision="FP32">
					<dim>-1</dim>
					<dim>-1</dim>
					<dim>8</dim>
					<dim>64</dim>
				</port>
				<port id="1" precision="I32">
					<dim>4</dim>
				</port>
			</input>
			<output>
				<port id="2" precision="FP32" names="present.1.decoder.key">
					<dim>-1</dim>
					<dim>8</dim>
					<dim>-1</dim>
					<dim>64</dim>
				</port>
			</output>
		</layer>
		<layer id="274" name="__module.model.model.decoder.layers.1.self_attn/aten::reshape/Reshape" type="Reshape" version="opset1">
			<data special_zero="false" />
			<input>
				<port id="0" precision="FP32">
					<dim>-1</dim>
					<dim>8</dim>
					<dim>-1</dim>
					<dim>64</dim>
				</port>
				<port id="1" precision="I32">
					<dim>3</dim>
				</port>
			</input>
			<output>
				<port id="2" precision="FP32" names="323,key_states.11">
					<dim>-1</dim>
					<dim>-1</dim>
					<dim>64</dim>
				</port>
			</output>
		</layer>
		<layer id="275" name="__module.model.model.decoder.layers.1.self_attn/aten::bmm/MatMul" type="MatMul" version="opset1">
			<data transpose_a="false" transpose_b="true" />
			<input>
				<port id="0" precision="FP32">
					<dim>-1</dim>
					<dim>-1</dim>
					<dim>64</dim>
				</port>
				<port id="1" precision="FP32">
					<dim>-1</dim>
					<dim>-1</dim>
					<dim>64</dim>
				</port>
			</input>
			<output>
				<port id="2" precision="FP32" names="328,attn_weights.11">
					<dim>-1</dim>
					<dim>-1</dim>
					<dim>-1</dim>
				</port>
			</output>
		</layer>
		<layer id="276" name="__module.model.model.decoder.layers.1.self_attn/prim::ListConstruct/Reshape_0_4" type="Const" version="opset1">
			<data element_type="i32" shape="1" offset="109242388" size="4" />
			<output>
				<port id="0" precision="I32">
					<dim>1</dim>
				</port>
			</output>
		</layer>
		<layer id="277" name="__module.model.model.decoder.layers.1.self_attn/aten::size/ShapeOf_2" type="ShapeOf" version="opset3">
			<data output_type="i32" />
			<input>
				<port id="0" precision="FP32">
					<dim>-1</dim>
					<dim>-1</dim>
					<dim>64</dim>
				</port>
			</input>
			<output>
				<port id="1" precision="I32">
					<dim>3</dim>
				</port>
			</output>
		</layer>
		<layer id="278" name="Constant_75148" type="Const" version="opset1">
			<data element_type="i32" shape="1" offset="107270148" size="4" />
			<output>
				<port id="0" precision="I32">
					<dim>1</dim>
				</port>
			</output>
		</layer>
		<layer id="279" name="__module.model.model.decoder.layers.1.self_attn/aten::size/Constant_2" type="Const" version="opset1">
			<data element_type="i32" shape="" offset="107270152" size="4" />
			<output>
				<port id="0" precision="I32" />
			</output>
		</layer>
		<layer id="280" name="__module.model.model.decoder.layers.1.self_attn/aten::size/Gather_2" type="Gather" version="opset8">
			<data batch_dims="0" />
			<input>
				<port id="0" precision="I32">
					<dim>3</dim>
				</port>
				<port id="1" precision="I32">
					<dim>1</dim>
				</port>
				<port id="2" precision="I32" />
			</input>
			<output>
				<port id="3" precision="I32" names="326">
					<dim>1</dim>
				</port>
			</output>
		</layer>
		<layer id="281" name="__module.model.model.decoder.layers.1.self_attn/prim::ListConstruct/Concat_4" type="Concat" version="opset1">
			<data axis="0" />
			<input>
				<port id="0" precision="I32">
					<dim>1</dim>
				</port>
				<port id="1" precision="I32">
					<dim>1</dim>
				</port>
				<port id="2" precision="I32">
					<dim>1</dim>
				</port>
				<port id="3" precision="I32">
					<dim>1</dim>
				</port>
			</input>
			<output>
				<port id="4" precision="I32" names="329">
					<dim>4</dim>
				</port>
			</output>
		</layer>
		<layer id="282" name="__module.model.model.decoder.layers.1.self_attn/aten::view/Reshape_3" type="Reshape" version="opset1">
			<data special_zero="false" />
			<input>
				<port id="0" precision="FP32">
					<dim>-1</dim>
					<dim>-1</dim>
					<dim>-1</dim>
				</port>
				<port id="1" precision="I32">
					<dim>4</dim>
				</port>
			</input>
			<output>
				<port id="2" precision="FP32" names="330">
					<dim>-1</dim>
					<dim>8</dim>
					<dim>-1</dim>
					<dim>-1</dim>
				</port>
			</output>
		</layer>
		<layer id="283" name="__module.model.model.decoder.layers.1.self_attn/aten::add/Add" type="Add" version="opset1">
			<data auto_broadcast="numpy" />
			<input>
				<port id="0" precision="FP32">
					<dim>-1</dim>
					<dim>8</dim>
					<dim>-1</dim>
					<dim>-1</dim>
				</port>
				<port id="1" precision="FP32">
					<dim>-1</dim>
					<dim>1</dim>
					<dim>-1</dim>
					<dim>-1</dim>
				</port>
			</input>
			<output>
				<port id="2" precision="FP32" names="331,attn_weights.13">
					<dim>-1</dim>
					<dim>8</dim>
					<dim>-1</dim>
					<dim>-1</dim>
				</port>
			</output>
		</layer>
		<layer id="284" name="__module.model.model.decoder.layers.1.self_attn/prim::ListConstruct/Concat_5" type="Concat" version="opset1">
			<data axis="0" />
			<input>
				<port id="0" precision="I32">
					<dim>1</dim>
				</port>
				<port id="1" precision="I32">
					<dim>1</dim>
				</port>
				<port id="2" precision="I32">
					<dim>1</dim>
				</port>
			</input>
			<output>
				<port id="3" precision="I32" names="334">
					<dim>3</dim>
				</port>
			</output>
		</layer>
		<layer id="285" name="__module.model.model.decoder.layers.1.self_attn/aten::view/Reshape_4" type="Reshape" version="opset1">
			<data special_zero="false" />
			<input>
				<port id="0" precision="FP32">
					<dim>-1</dim>
					<dim>8</dim>
					<dim>-1</dim>
					<dim>-1</dim>
				</port>
				<port id="1" precision="I32">
					<dim>3</dim>
				</port>
			</input>
			<output>
				<port id="2" precision="FP32" names="335,input.39">
					<dim>-1</dim>
					<dim>-1</dim>
					<dim>-1</dim>
				</port>
			</output>
		</layer>
		<layer id="286" name="__module.model.model.decoder.layers.1.self_attn/aten::softmax/Softmax" type="SoftMax" version="opset8">
			<data axis="-1" />
			<input>
				<port id="0" precision="FP32">
					<dim>-1</dim>
					<dim>-1</dim>
					<dim>-1</dim>
				</port>
			</input>
			<output>
				<port id="1" precision="FP32" names="336,input.41">
					<dim>-1</dim>
					<dim>-1</dim>
					<dim>-1</dim>
				</port>
			</output>
		</layer>
		<layer id="287" name="Constant_18737" type="Const" version="opset1">
			<data element_type="f32" shape="512, 512" offset="127103156" size="1048576" />
			<output>
				<port id="0" precision="FP32" names="306,weight.79">
					<dim>512</dim>
					<dim>512</dim>
				</port>
			</output>
		</layer>
		<layer id="288" name="__module.model.model.decoder.layers.1.self_attn.v_proj/aten::linear/MatMul" type="MatMul" version="opset1">
			<data transpose_a="false" transpose_b="true" />
			<input>
				<port id="0" precision="FP32">
					<dim>-1</dim>
					<dim>-1</dim>
					<dim>512</dim>
				</port>
				<port id="1" precision="FP32">
					<dim>512</dim>
					<dim>512</dim>
				</port>
			</input>
			<output>
				<port id="2" precision="FP32">
					<dim>-1</dim>
					<dim>-1</dim>
					<dim>512</dim>
				</port>
			</output>
		</layer>
		<layer id="289" name="Constant_78653" type="Const" version="opset1">
			<data element_type="f32" shape="1, 1, 512" offset="128151732" size="2048" />
			<output>
				<port id="0" precision="FP32">
					<dim>1</dim>
					<dim>1</dim>
					<dim>512</dim>
				</port>
			</output>
		</layer>
		<layer id="290" name="__module.model.model.decoder.layers.1.self_attn.v_proj/aten::linear/Add" type="Add" version="opset1">
			<data auto_broadcast="numpy" />
			<input>
				<port id="0" precision="FP32">
					<dim>-1</dim>
					<dim>-1</dim>
					<dim>512</dim>
				</port>
				<port id="1" precision="FP32">
					<dim>1</dim>
					<dim>1</dim>
					<dim>512</dim>
				</port>
			</input>
			<output>
				<port id="2" precision="FP32" names="307,tensor.15">
					<dim>-1</dim>
					<dim>-1</dim>
					<dim>512</dim>
				</port>
			</output>
		</layer>
		<layer id="291" name="__module.model.model.decoder.layers.1.self_attn/aten::view/Reshape_5" type="Reshape" version="opset1">
			<data special_zero="false" />
			<input>
				<port id="0" precision="FP32">
					<dim>-1</dim>
					<dim>-1</dim>
					<dim>512</dim>
				</port>
				<port id="1" precision="I32">
					<dim>4</dim>
				</port>
			</input>
			<output>
				<port id="2" precision="FP32" names="309">
					<dim>-1</dim>
					<dim>-1</dim>
					<dim>8</dim>
					<dim>64</dim>
				</port>
			</output>
		</layer>
		<layer id="292" name="__module.model.model.decoder.layers.1.self_attn/aten::transpose/ScatterElementsUpdate_3" type="Const" version="opset1">
			<data element_type="i32" shape="4" offset="109242396" size="16" />
			<output>
				<port id="0" precision="I32">
					<dim>4</dim>
				</port>
			</output>
		</layer>
		<layer id="293" name="__module.model.model.decoder.layers.1.self_attn/aten::transpose/Transpose_3" type="Transpose" version="opset1">
			<input>
				<port id="0" precision="FP32">
					<dim>-1</dim>
					<dim>-1</dim>
					<dim>8</dim>
					<dim>64</dim>
				</port>
				<port id="1" precision="I32">
					<dim>4</dim>
				</port>
			</input>
			<output>
				<port id="2" precision="FP32" names="present.1.decoder.value">
					<dim>-1</dim>
					<dim>8</dim>
					<dim>-1</dim>
					<dim>64</dim>
				</port>
			</output>
		</layer>
		<layer id="294" name="__module.model.model.decoder.layers.1.self_attn/aten::reshape/Reshape_1" type="Reshape" version="opset1">
			<data special_zero="false" />
			<input>
				<port id="0" precision="FP32">
					<dim>-1</dim>
					<dim>8</dim>
					<dim>-1</dim>
					<dim>64</dim>
				</port>
				<port id="1" precision="I32">
					<dim>3</dim>
				</port>
			</input>
			<output>
				<port id="2" precision="FP32" names="325,value_states.11">
					<dim>-1</dim>
					<dim>-1</dim>
					<dim>64</dim>
				</port>
			</output>
		</layer>
		<layer id="295" name="__module.model.model.decoder.layers.1.self_attn/aten::bmm/MatMul_1" type="MatMul" version="opset1">
			<data transpose_a="false" transpose_b="false" />
			<input>
				<port id="0" precision="FP32">
					<dim>-1</dim>
					<dim>-1</dim>
					<dim>-1</dim>
				</port>
				<port id="1" precision="FP32">
					<dim>-1</dim>
					<dim>-1</dim>
					<dim>64</dim>
				</port>
			</input>
			<output>
				<port id="2" precision="FP32" names="338,attn_output.13">
					<dim>-1</dim>
					<dim>-1</dim>
					<dim>64</dim>
				</port>
			</output>
		</layer>
		<layer id="296" name="__module.model.model.decoder.layers.1.self_attn/prim::ListConstruct/Reshape_0_8" type="Const" version="opset1">
			<data element_type="i32" shape="1" offset="109242388" size="4" />
			<output>
				<port id="0" precision="I32">
					<dim>1</dim>
				</port>
			</output>
		</layer>
		<layer id="297" name="__module.model.model.decoder.layers.1.self_attn/prim::ListConstruct/Reshape_2_4" type="Const" version="opset1">
			<data element_type="i32" shape="1" offset="109242392" size="4" />
			<output>
				<port id="0" precision="I32">
					<dim>1</dim>
				</port>
			</output>
		</layer>
		<layer id="298" name="__module.model.model.decoder.layers.1.self_attn/prim::ListConstruct/Concat_8" type="Concat" version="opset1">
			<data axis="0" />
			<input>
				<port id="0" precision="I32">
					<dim>1</dim>
				</port>
				<port id="1" precision="I32">
					<dim>1</dim>
				</port>
				<port id="2" precision="I32">
					<dim>1</dim>
				</port>
				<port id="3" precision="I32">
					<dim>1</dim>
				</port>
			</input>
			<output>
				<port id="4" precision="I32" names="339">
					<dim>4</dim>
				</port>
			</output>
		</layer>
		<layer id="299" name="__module.model.model.decoder.layers.1.self_attn/aten::view/Reshape_6" type="Reshape" version="opset1">
			<data special_zero="false" />
			<input>
				<port id="0" precision="FP32">
					<dim>-1</dim>
					<dim>-1</dim>
					<dim>64</dim>
				</port>
				<port id="1" precision="I32">
					<dim>4</dim>
				</port>
			</input>
			<output>
				<port id="2" precision="FP32" names="340,attn_output.15">
					<dim>-1</dim>
					<dim>8</dim>
					<dim>-1</dim>
					<dim>64</dim>
				</port>
			</output>
		</layer>
		<layer id="300" name="__module.model.model.decoder.layers.1.self_attn/aten::transpose/ScatterElementsUpdate_4" type="Const" version="opset1">
			<data element_type="i32" shape="4" offset="109242396" size="16" />
			<output>
				<port id="0" precision="I32">
					<dim>4</dim>
				</port>
			</output>
		</layer>
		<layer id="301" name="__module.model.model.decoder.layers.1.self_attn/aten::transpose/Transpose_4" type="Transpose" version="opset1">
			<input>
				<port id="0" precision="FP32">
					<dim>-1</dim>
					<dim>8</dim>
					<dim>-1</dim>
					<dim>64</dim>
				</port>
				<port id="1" precision="I32">
					<dim>4</dim>
				</port>
			</input>
			<output>
				<port id="2" precision="FP32" names="341,attn_output.17">
					<dim>-1</dim>
					<dim>-1</dim>
					<dim>8</dim>
					<dim>64</dim>
				</port>
			</output>
		</layer>
		<layer id="302" name="__module.model.model.decoder.layers.1.self_attn/prim::ListConstruct/Reshape_1_9" type="Const" version="opset1">
			<data element_type="i32" shape="1" offset="111341744" size="4" />
			<output>
				<port id="0" precision="I32">
					<dim>1</dim>
				</port>
			</output>
		</layer>
		<layer id="303" name="__module.model.model.decoder.layers.1.self_attn/prim::ListConstruct/Concat_9" type="Concat" version="opset1">
			<data axis="0" />
			<input>
				<port id="0" precision="I32">
					<dim>1</dim>
				</port>
				<port id="1" precision="I32">
					<dim>1</dim>
				</port>
				<port id="2" precision="I32">
					<dim>1</dim>
				</port>
			</input>
			<output>
				<port id="3" precision="I32" names="342">
					<dim>3</dim>
				</port>
			</output>
		</layer>
		<layer id="304" name="__module.model.model.decoder.layers.1.self_attn/aten::reshape/Reshape_2" type="Reshape" version="opset1">
			<data special_zero="false" />
			<input>
				<port id="0" precision="FP32">
					<dim>-1</dim>
					<dim>-1</dim>
					<dim>8</dim>
					<dim>64</dim>
				</port>
				<port id="1" precision="I32">
					<dim>3</dim>
				</port>
			</input>
			<output>
				<port id="2" precision="FP32" names="343,input.43">
					<dim>-1</dim>
					<dim>-1</dim>
					<dim>512</dim>
				</port>
			</output>
		</layer>
		<layer id="305" name="Constant_19149" type="Const" version="opset1">
			<data element_type="f32" shape="512, 512" offset="128153780" size="1048576" />
			<output>
				<port id="0" precision="FP32" names="345,weight.81">
					<dim>512</dim>
					<dim>512</dim>
				</port>
			</output>
		</layer>
		<layer id="306" name="__module.model.model.decoder.layers.1.self_attn.out_proj/aten::linear/MatMul" type="MatMul" version="opset1">
			<data transpose_a="false" transpose_b="true" />
			<input>
				<port id="0" precision="FP32">
					<dim>-1</dim>
					<dim>-1</dim>
					<dim>512</dim>
				</port>
				<port id="1" precision="FP32">
					<dim>512</dim>
					<dim>512</dim>
				</port>
			</input>
			<output>
				<port id="2" precision="FP32">
					<dim>-1</dim>
					<dim>-1</dim>
					<dim>512</dim>
				</port>
			</output>
		</layer>
		<layer id="307" name="Constant_78654" type="Const" version="opset1">
			<data element_type="f32" shape="1, 1, 512" offset="129202356" size="2048" />
			<output>
				<port id="0" precision="FP32">
					<dim>1</dim>
					<dim>1</dim>
					<dim>512</dim>
				</port>
			</output>
		</layer>
		<layer id="308" name="__module.model.model.decoder.layers.1.self_attn.out_proj/aten::linear/Add" type="Add" version="opset1">
			<data auto_broadcast="numpy" />
			<input>
				<port id="0" precision="FP32">
					<dim>-1</dim>
					<dim>-1</dim>
					<dim>512</dim>
				</port>
				<port id="1" precision="FP32">
					<dim>1</dim>
					<dim>1</dim>
					<dim>512</dim>
				</port>
			</input>
			<output>
				<port id="2" precision="FP32" names="346,348,input.45">
					<dim>-1</dim>
					<dim>-1</dim>
					<dim>512</dim>
				</port>
			</output>
		</layer>
		<layer id="309" name="__module.model.model.decoder.layers.1/aten::add/Add" type="Add" version="opset1">
			<data auto_broadcast="numpy" />
			<input>
				<port id="0" precision="FP32">
					<dim>-1</dim>
					<dim>-1</dim>
					<dim>512</dim>
				</port>
				<port id="1" precision="FP32">
					<dim>-1</dim>
					<dim>-1</dim>
					<dim>512</dim>
				</port>
			</input>
			<output>
				<port id="2" precision="FP32" names="352,input.47">
					<dim>-1</dim>
					<dim>-1</dim>
					<dim>512</dim>
				</port>
			</output>
		</layer>
		<layer id="310" name="__module.model.model.decoder.layers.1.encoder_attn_layer_norm/aten::layer_norm/Constant" type="Const" version="opset1">
			<data element_type="i32" shape="1" offset="107270144" size="4" />
			<output>
				<port id="0" precision="I32">
					<dim>1</dim>
				</port>
			</output>
		</layer>
		<layer id="311" name="__module.model.model.decoder.layers.1.encoder_attn_layer_norm/aten::layer_norm/MVN" type="MVN" version="opset6">
			<data eps="9.9999997473787516e-06" normalize_variance="true" eps_mode="INSIDE_SQRT" />
			<input>
				<port id="0" precision="FP32">
					<dim>-1</dim>
					<dim>-1</dim>
					<dim>512</dim>
				</port>
				<port id="1" precision="I32">
					<dim>1</dim>
				</port>
			</input>
			<output>
				<port id="2" precision="FP32">
					<dim>-1</dim>
					<dim>-1</dim>
					<dim>512</dim>
				</port>
			</output>
		</layer>
		<layer id="312" name="Constant_78655" type="Const" version="opset1">
			<data element_type="f32" shape="1, 1, 512" offset="129204404" size="2048" />
			<output>
				<port id="0" precision="FP32">
					<dim>1</dim>
					<dim>1</dim>
					<dim>512</dim>
				</port>
			</output>
		</layer>
		<layer id="313" name="__module.model.model.decoder.layers.1.encoder_attn_layer_norm/aten::layer_norm/Multiply" type="Multiply" version="opset1">
			<data auto_broadcast="numpy" />
			<input>
				<port id="0" precision="FP32">
					<dim>-1</dim>
					<dim>-1</dim>
					<dim>512</dim>
				</port>
				<port id="1" precision="FP32">
					<dim>1</dim>
					<dim>1</dim>
					<dim>512</dim>
				</port>
			</input>
			<output>
				<port id="2" precision="FP32">
					<dim>-1</dim>
					<dim>-1</dim>
					<dim>512</dim>
				</port>
			</output>
		</layer>
		<layer id="314" name="Constant_78656" type="Const" version="opset1">
			<data element_type="f32" shape="1, 1, 512" offset="129206452" size="2048" />
			<output>
				<port id="0" precision="FP32">
					<dim>1</dim>
					<dim>1</dim>
					<dim>512</dim>
				</port>
			</output>
		</layer>
		<layer id="315" name="__module.model.model.decoder.layers.1.encoder_attn_layer_norm/aten::layer_norm/Add" type="Add" version="opset1">
			<data auto_broadcast="numpy" />
			<input>
				<port id="0" precision="FP32">
					<dim>-1</dim>
					<dim>-1</dim>
					<dim>512</dim>
				</port>
				<port id="1" precision="FP32">
					<dim>1</dim>
					<dim>1</dim>
					<dim>512</dim>
				</port>
			</input>
			<output>
				<port id="2" precision="FP32" names="356,hidden_states.15">
					<dim>-1</dim>
					<dim>-1</dim>
					<dim>512</dim>
				</port>
			</output>
		</layer>
		<layer id="316" name="Constant_78297" type="Const" version="opset1">
			<data element_type="f32" shape="512, 512" offset="129208500" size="1048576" />
			<output>
				<port id="0" precision="FP32">
					<dim>512</dim>
					<dim>512</dim>
				</port>
			</output>
		</layer>
		<layer id="317" name="Multiply_78251" type="MatMul" version="opset1">
			<data transpose_a="false" transpose_b="true" />
			<input>
				<port id="0" precision="FP32">
					<dim>-1</dim>
					<dim>-1</dim>
					<dim>512</dim>
				</port>
				<port id="1" precision="FP32">
					<dim>512</dim>
					<dim>512</dim>
				</port>
			</input>
			<output>
				<port id="2" precision="FP32">
					<dim>-1</dim>
					<dim>-1</dim>
					<dim>512</dim>
				</port>
			</output>
		</layer>
		<layer id="318" name="Constant_78657" type="Const" version="opset1">
			<data element_type="f32" shape="1, 1, 512" offset="130257076" size="2048" />
			<output>
				<port id="0" precision="FP32">
					<dim>1</dim>
					<dim>1</dim>
					<dim>512</dim>
				</port>
			</output>
		</layer>
		<layer id="319" name="__module.model.model.decoder.layers.1.encoder_attn/aten::mul/Multiply" type="Add" version="opset1">
			<data auto_broadcast="numpy" />
			<input>
				<port id="0" precision="FP32">
					<dim>-1</dim>
					<dim>-1</dim>
					<dim>512</dim>
				</port>
				<port id="1" precision="FP32">
					<dim>1</dim>
					<dim>1</dim>
					<dim>512</dim>
				</port>
			</input>
			<output>
				<port id="2" precision="FP32" names="367,tensor.23">
					<dim>-1</dim>
					<dim>-1</dim>
					<dim>512</dim>
				</port>
			</output>
		</layer>
		<layer id="320" name="__module.model.model.decoder.layers.1.encoder_attn/aten::size/ShapeOf" type="ShapeOf" version="opset3">
			<data output_type="i32" />
			<input>
				<port id="0" precision="FP32">
					<dim>-1</dim>
					<dim>-1</dim>
					<dim>512</dim>
				</port>
			</input>
			<output>
				<port id="1" precision="I32">
					<dim>3</dim>
				</port>
			</output>
		</layer>
		<layer id="321" name="__module.model.model.decoder.layers.1.encoder_attn/aten::size/Constant" type="Const" version="opset1">
			<data element_type="i32" shape="" offset="107270152" size="4" />
			<output>
				<port id="0" precision="I32" />
			</output>
		</layer>
		<layer id="322" name="__module.model.model.decoder.layers.1.encoder_attn/aten::size/Gather" type="Gather" version="opset8">
			<data batch_dims="0" />
			<input>
				<port id="0" precision="I32">
					<dim>3</dim>
				</port>
				<port id="1" precision="I32" />
				<port id="2" precision="I32" />
			</input>
			<output>
				<port id="3" precision="I32" names="361" />
			</output>
		</layer>
		<layer id="323" name="Constant_148399" type="Const" version="opset1">
			<data element_type="i64" shape="1" offset="107270156" size="8" />
			<output>
				<port id="0" precision="I64">
					<dim>1</dim>
				</port>
			</output>
		</layer>
		<layer id="324" name="__module.model.model.decoder.layers.1.encoder_attn/prim::ListConstruct/Reshape" type="Reshape" version="opset1">
			<data special_zero="false" />
			<input>
				<port id="0" precision="I32" />
				<port id="1" precision="I64">
					<dim>1</dim>
				</port>
			</input>
			<output>
				<port id="2" precision="I32">
					<dim>1</dim>
				</port>
			</output>
		</layer>
		<layer id="325" name="Constant_75151" type="Const" version="opset1">
			<data element_type="i32" shape="1" offset="107270148" size="4" />
			<output>
				<port id="0" precision="I32">
					<dim>1</dim>
				</port>
			</output>
		</layer>
		<layer id="326" name="__module.model.model.decoder.layers.1.encoder_attn/aten::size/Constant_1" type="Const" version="opset1">
			<data element_type="i32" shape="" offset="107270152" size="4" />
			<output>
				<port id="0" precision="I32" />
			</output>
		</layer>
		<layer id="327" name="__module.model.model.decoder.layers.1.encoder_attn/aten::size/Gather_1" type="Gather" version="opset8">
			<data batch_dims="0" />
			<input>
				<port id="0" precision="I32">
					<dim>3</dim>
				</port>
				<port id="1" precision="I32">
					<dim>1</dim>
				</port>
				<port id="2" precision="I32" />
			</input>
			<output>
				<port id="3" precision="I32" names="363">
					<dim>1</dim>
				</port>
			</output>
		</layer>
		<layer id="328" name="__module.model.model.decoder.layers.1.encoder_attn/prim::ListConstruct/Reshape_1" type="Const" version="opset1">
			<data element_type="i32" shape="1" offset="109242388" size="4" />
			<output>
				<port id="0" precision="I32">
					<dim>1</dim>
				</port>
			</output>
		</layer>
		<layer id="329" name="__module.model.model.decoder.layers.1.encoder_attn/prim::ListConstruct/Reshape_2" type="Const" version="opset1">
			<data element_type="i32" shape="1" offset="109242392" size="4" />
			<output>
				<port id="0" precision="I32">
					<dim>1</dim>
				</port>
			</output>
		</layer>
		<layer id="330" name="__module.model.model.decoder.layers.1.encoder_attn/prim::ListConstruct/Concat" type="Concat" version="opset1">
			<data axis="0" />
			<input>
				<port id="0" precision="I32">
					<dim>1</dim>
				</port>
				<port id="1" precision="I32">
					<dim>1</dim>
				</port>
				<port id="2" precision="I32">
					<dim>1</dim>
				</port>
				<port id="3" precision="I32">
					<dim>1</dim>
				</port>
			</input>
			<output>
				<port id="4" precision="I32" names="385">
					<dim>4</dim>
				</port>
			</output>
		</layer>
		<layer id="331" name="__module.model.model.decoder.layers.1.encoder_attn/aten::view/Reshape" type="Reshape" version="opset1">
			<data special_zero="false" />
			<input>
				<port id="0" precision="FP32">
					<dim>-1</dim>
					<dim>-1</dim>
					<dim>512</dim>
				</port>
				<port id="1" precision="I32">
					<dim>4</dim>
				</port>
			</input>
			<output>
				<port id="2" precision="FP32" names="386">
					<dim>-1</dim>
					<dim>-1</dim>
					<dim>8</dim>
					<dim>64</dim>
				</port>
			</output>
		</layer>
		<layer id="332" name="__module.model.model.decoder.layers.1.encoder_attn/aten::transpose/ScatterElementsUpdate" type="Const" version="opset1">
			<data element_type="i32" shape="4" offset="109242396" size="16" />
			<output>
				<port id="0" precision="I32">
					<dim>4</dim>
				</port>
			</output>
		</layer>
		<layer id="333" name="__module.model.model.decoder.layers.1.encoder_attn/aten::transpose/Transpose" type="Transpose" version="opset1">
			<input>
				<port id="0" precision="FP32">
					<dim>-1</dim>
					<dim>-1</dim>
					<dim>8</dim>
					<dim>64</dim>
				</port>
				<port id="1" precision="I32">
					<dim>4</dim>
				</port>
			</input>
			<output>
				<port id="2" precision="FP32" names="387">
					<dim>-1</dim>
					<dim>8</dim>
					<dim>-1</dim>
					<dim>64</dim>
				</port>
			</output>
		</layer>
		<layer id="334" name="__module.model.model.decoder.layers.1.encoder_attn/aten::mul/Multiply_1" type="Multiply" version="opset1">
			<data auto_broadcast="numpy" />
			<input>
				<port id="0" precision="I32" />
				<port id="1" precision="I32" />
			</input>
			<output>
				<port id="2" precision="I32" names="381,382,383,384" />
			</output>
		</layer>
		<layer id="335" name="Constant_148400" type="Const" version="opset1">
			<data element_type="i64" shape="1" offset="107270156" size="8" />
			<output>
				<port id="0" precision="I64">
					<dim>1</dim>
				</port>
			</output>
		</layer>
		<layer id="336" name="__module.model.model.decoder.layers.1.encoder_attn/prim::ListConstruct/Reshape_3" type="Reshape" version="opset1">
			<data special_zero="false" />
			<input>
				<port id="0" precision="I32" />
				<port id="1" precision="I64">
					<dim>1</dim>
				</port>
			</input>
			<output>
				<port id="2" precision="I32">
					<dim>1</dim>
				</port>
			</output>
		</layer>
		<layer id="337" name="__module.model.model.decoder.layers.1.encoder_attn/prim::ListConstruct/Reshape_0_1" type="Const" version="opset1">
			<data element_type="i32" shape="1" offset="107270144" size="4" />
			<output>
				<port id="0" precision="I32">
					<dim>1</dim>
				</port>
			</output>
		</layer>
		<layer id="338" name="__module.model.model.decoder.layers.1.encoder_attn/prim::ListConstruct/Reshape_1_1" type="Const" version="opset1">
			<data element_type="i32" shape="1" offset="109242392" size="4" />
			<output>
				<port id="0" precision="I32">
					<dim>1</dim>
				</port>
			</output>
		</layer>
		<layer id="339" name="__module.model.model.decoder.layers.1.encoder_attn/prim::ListConstruct/Concat_1" type="Concat" version="opset1">
			<data axis="0" />
			<input>
				<port id="0" precision="I32">
					<dim>1</dim>
				</port>
				<port id="1" precision="I32">
					<dim>1</dim>
				</port>
				<port id="2" precision="I32">
					<dim>1</dim>
				</port>
			</input>
			<output>
				<port id="3" precision="I32" names="389,391,393">
					<dim>3</dim>
				</port>
			</output>
		</layer>
		<layer id="340" name="__module.model.model.decoder.layers.1.encoder_attn/aten::view/Reshape_1" type="Reshape" version="opset1">
			<data special_zero="false" />
			<input>
				<port id="0" precision="FP32">
					<dim>-1</dim>
					<dim>8</dim>
					<dim>-1</dim>
					<dim>64</dim>
				</port>
				<port id="1" precision="I32">
					<dim>3</dim>
				</port>
			</input>
			<output>
				<port id="2" precision="FP32" names="390,query_states.7">
					<dim>-1</dim>
					<dim>-1</dim>
					<dim>64</dim>
				</port>
			</output>
		</layer>
		<layer id="341" name="Constant_19188" type="Const" version="opset1">
			<data element_type="f32" shape="512, 512" offset="130259124" size="1048576" />
			<output>
				<port id="0" precision="FP32" names="368,weight.87">
					<dim>512</dim>
					<dim>512</dim>
				</port>
			</output>
		</layer>
		<layer id="342" name="__module.model.model.decoder.layers.1.encoder_attn.k_proj/aten::linear/MatMul" type="MatMul" version="opset1">
			<data transpose_a="false" transpose_b="true" />
			<input>
				<port id="0" precision="FP32">
					<dim>-1</dim>
					<dim>-1</dim>
					<dim>512</dim>
				</port>
				<port id="1" precision="FP32">
					<dim>512</dim>
					<dim>512</dim>
				</port>
			</input>
			<output>
				<port id="2" precision="FP32" names="369,tensor.19">
					<dim>-1</dim>
					<dim>-1</dim>
					<dim>512</dim>
				</port>
			</output>
		</layer>
		<layer id="343" name="__module.model.model.decoder.layers.1.encoder_attn/prim::ListConstruct/Reshape_0_2" type="Const" version="opset1">
			<data element_type="i32" shape="1" offset="107270144" size="4" />
			<output>
				<port id="0" precision="I32">
					<dim>1</dim>
				</port>
			</output>
		</layer>
		<layer id="344" name="__module.model.model.decoder.layers.1.encoder_attn/prim::ListConstruct/Reshape_1_2" type="Const" version="opset1">
			<data element_type="i32" shape="1" offset="109242388" size="4" />
			<output>
				<port id="0" precision="I32">
					<dim>1</dim>
				</port>
			</output>
		</layer>
		<layer id="345" name="__module.model.model.decoder.layers.1.encoder_attn/prim::ListConstruct/Reshape_2_1" type="Const" version="opset1">
			<data element_type="i32" shape="1" offset="109242392" size="4" />
			<output>
				<port id="0" precision="I32">
					<dim>1</dim>
				</port>
			</output>
		</layer>
		<layer id="346" name="__module.model.model.decoder.layers.1.encoder_attn/prim::ListConstruct/Concat_2" type="Concat" version="opset1">
			<data axis="0" />
			<input>
				<port id="0" precision="I32">
					<dim>1</dim>
				</port>
				<port id="1" precision="I32">
					<dim>1</dim>
				</port>
				<port id="2" precision="I32">
					<dim>1</dim>
				</port>
				<port id="3" precision="I32">
					<dim>1</dim>
				</port>
			</input>
			<output>
				<port id="4" precision="I32" names="370,377">
					<dim>4</dim>
				</port>
			</output>
		</layer>
		<layer id="347" name="__module.model.model.decoder.layers.1.encoder_attn/aten::view/Reshape_2" type="Reshape" version="opset1">
			<data special_zero="false" />
			<input>
				<port id="0" precision="FP32">
					<dim>-1</dim>
					<dim>-1</dim>
					<dim>512</dim>
				</port>
				<port id="1" precision="I32">
					<dim>4</dim>
				</port>
			</input>
			<output>
				<port id="2" precision="FP32" names="371">
					<dim>-1</dim>
					<dim>-1</dim>
					<dim>8</dim>
					<dim>64</dim>
				</port>
			</output>
		</layer>
		<layer id="348" name="__module.model.model.decoder.layers.1.encoder_attn/aten::transpose/ScatterElementsUpdate_1" type="Const" version="opset1">
			<data element_type="i32" shape="4" offset="109242396" size="16" />
			<output>
				<port id="0" precision="I32">
					<dim>4</dim>
				</port>
			</output>
		</layer>
		<layer id="349" name="__module.model.model.decoder.layers.1.encoder_attn/aten::transpose/Transpose_1" type="Transpose" version="opset1">
			<input>
				<port id="0" precision="FP32">
					<dim>-1</dim>
					<dim>-1</dim>
					<dim>8</dim>
					<dim>64</dim>
				</port>
				<port id="1" precision="I32">
					<dim>4</dim>
				</port>
			</input>
			<output>
				<port id="2" precision="FP32" names="present.1.encoder.key">
					<dim>-1</dim>
					<dim>8</dim>
					<dim>-1</dim>
					<dim>64</dim>
				</port>
			</output>
		</layer>
		<layer id="350" name="__module.model.model.decoder.layers.1.encoder_attn/aten::reshape/Reshape" type="Reshape" version="opset1">
			<data special_zero="false" />
			<input>
				<port id="0" precision="FP32">
					<dim>-1</dim>
					<dim>8</dim>
					<dim>-1</dim>
					<dim>64</dim>
				</port>
				<port id="1" precision="I32">
					<dim>3</dim>
				</port>
			</input>
			<output>
				<port id="2" precision="FP32" names="392,key_states.15">
					<dim>-1</dim>
					<dim>-1</dim>
					<dim>64</dim>
				</port>
			</output>
		</layer>
		<layer id="351" name="__module.model.model.decoder.layers.1.encoder_attn/aten::bmm/MatMul" type="MatMul" version="opset1">
			<data transpose_a="false" transpose_b="true" />
			<input>
				<port id="0" precision="FP32">
					<dim>-1</dim>
					<dim>-1</dim>
					<dim>64</dim>
				</port>
				<port id="1" precision="FP32">
					<dim>-1</dim>
					<dim>-1</dim>
					<dim>64</dim>
				</port>
			</input>
			<output>
				<port id="2" precision="FP32" names="396,attn_weights.17">
					<dim>-1</dim>
					<dim>-1</dim>
					<dim>-1</dim>
				</port>
			</output>
		</layer>
		<layer id="352" name="__module.model.model.decoder.layers.1.encoder_attn/aten::softmax/Softmax" type="SoftMax" version="opset8">
			<data axis="-1" />
			<input>
				<port id="0" precision="FP32">
					<dim>-1</dim>
					<dim>-1</dim>
					<dim>-1</dim>
				</port>
			</input>
			<output>
				<port id="1" precision="FP32" names="397,input.49">
					<dim>-1</dim>
					<dim>-1</dim>
					<dim>-1</dim>
				</port>
			</output>
		</layer>
		<layer id="353" name="Constant_19222" type="Const" version="opset1">
			<data element_type="f32" shape="512, 512" offset="131307700" size="1048576" />
			<output>
				<port id="0" precision="FP32" names="375,weight.89">
					<dim>512</dim>
					<dim>512</dim>
				</port>
			</output>
		</layer>
		<layer id="354" name="__module.model.model.decoder.layers.1.encoder_attn.v_proj/aten::linear/MatMul" type="MatMul" version="opset1">
			<data transpose_a="false" transpose_b="true" />
			<input>
				<port id="0" precision="FP32">
					<dim>-1</dim>
					<dim>-1</dim>
					<dim>512</dim>
				</port>
				<port id="1" precision="FP32">
					<dim>512</dim>
					<dim>512</dim>
				</port>
			</input>
			<output>
				<port id="2" precision="FP32">
					<dim>-1</dim>
					<dim>-1</dim>
					<dim>512</dim>
				</port>
			</output>
		</layer>
		<layer id="355" name="Constant_78658" type="Const" version="opset1">
			<data element_type="f32" shape="1, 1, 512" offset="132356276" size="2048" />
			<output>
				<port id="0" precision="FP32">
					<dim>1</dim>
					<dim>1</dim>
					<dim>512</dim>
				</port>
			</output>
		</layer>
		<layer id="356" name="__module.model.model.decoder.layers.1.encoder_attn.v_proj/aten::linear/Add" type="Add" version="opset1">
			<data auto_broadcast="numpy" />
			<input>
				<port id="0" precision="FP32">
					<dim>-1</dim>
					<dim>-1</dim>
					<dim>512</dim>
				</port>
				<port id="1" precision="FP32">
					<dim>1</dim>
					<dim>1</dim>
					<dim>512</dim>
				</port>
			</input>
			<output>
				<port id="2" precision="FP32" names="376,tensor.21">
					<dim>-1</dim>
					<dim>-1</dim>
					<dim>512</dim>
				</port>
			</output>
		</layer>
		<layer id="357" name="__module.model.model.decoder.layers.1.encoder_attn/aten::view/Reshape_3" type="Reshape" version="opset1">
			<data special_zero="false" />
			<input>
				<port id="0" precision="FP32">
					<dim>-1</dim>
					<dim>-1</dim>
					<dim>512</dim>
				</port>
				<port id="1" precision="I32">
					<dim>4</dim>
				</port>
			</input>
			<output>
				<port id="2" precision="FP32" names="378">
					<dim>-1</dim>
					<dim>-1</dim>
					<dim>8</dim>
					<dim>64</dim>
				</port>
			</output>
		</layer>
		<layer id="358" name="__module.model.model.decoder.layers.1.encoder_attn/aten::transpose/ScatterElementsUpdate_3" type="Const" version="opset1">
			<data element_type="i32" shape="4" offset="109242396" size="16" />
			<output>
				<port id="0" precision="I32">
					<dim>4</dim>
				</port>
			</output>
		</layer>
		<layer id="359" name="__module.model.model.decoder.layers.1.encoder_attn/aten::transpose/Transpose_3" type="Transpose" version="opset1">
			<input>
				<port id="0" precision="FP32">
					<dim>-1</dim>
					<dim>-1</dim>
					<dim>8</dim>
					<dim>64</dim>
				</port>
				<port id="1" precision="I32">
					<dim>4</dim>
				</port>
			</input>
			<output>
				<port id="2" precision="FP32" names="present.1.encoder.value">
					<dim>-1</dim>
					<dim>8</dim>
					<dim>-1</dim>
					<dim>64</dim>
				</port>
			</output>
		</layer>
		<layer id="360" name="__module.model.model.decoder.layers.1.encoder_attn/aten::reshape/Reshape_1" type="Reshape" version="opset1">
			<data special_zero="false" />
			<input>
				<port id="0" precision="FP32">
					<dim>-1</dim>
					<dim>8</dim>
					<dim>-1</dim>
					<dim>64</dim>
				</port>
				<port id="1" precision="I32">
					<dim>3</dim>
				</port>
			</input>
			<output>
				<port id="2" precision="FP32" names="394,value_states.15">
					<dim>-1</dim>
					<dim>-1</dim>
					<dim>64</dim>
				</port>
			</output>
		</layer>
		<layer id="361" name="__module.model.model.decoder.layers.1.encoder_attn/aten::bmm/MatMul_1" type="MatMul" version="opset1">
			<data transpose_a="false" transpose_b="false" />
			<input>
				<port id="0" precision="FP32">
					<dim>-1</dim>
					<dim>-1</dim>
					<dim>-1</dim>
				</port>
				<port id="1" precision="FP32">
					<dim>-1</dim>
					<dim>-1</dim>
					<dim>64</dim>
				</port>
			</input>
			<output>
				<port id="2" precision="FP32" names="399,attn_output.19">
					<dim>-1</dim>
					<dim>-1</dim>
					<dim>64</dim>
				</port>
			</output>
		</layer>
		<layer id="362" name="__module.model.model.decoder.layers.1.encoder_attn/prim::ListConstruct/Reshape_0_6" type="Const" version="opset1">
			<data element_type="i32" shape="1" offset="109242388" size="4" />
			<output>
				<port id="0" precision="I32">
					<dim>1</dim>
				</port>
			</output>
		</layer>
		<layer id="363" name="__module.model.model.decoder.layers.1.encoder_attn/prim::ListConstruct/Reshape_2_3" type="Const" version="opset1">
			<data element_type="i32" shape="1" offset="109242392" size="4" />
			<output>
				<port id="0" precision="I32">
					<dim>1</dim>
				</port>
			</output>
		</layer>
		<layer id="364" name="__module.model.model.decoder.layers.1.encoder_attn/prim::ListConstruct/Concat_6" type="Concat" version="opset1">
			<data axis="0" />
			<input>
				<port id="0" precision="I32">
					<dim>1</dim>
				</port>
				<port id="1" precision="I32">
					<dim>1</dim>
				</port>
				<port id="2" precision="I32">
					<dim>1</dim>
				</port>
				<port id="3" precision="I32">
					<dim>1</dim>
				</port>
			</input>
			<output>
				<port id="4" precision="I32" names="400">
					<dim>4</dim>
				</port>
			</output>
		</layer>
		<layer id="365" name="__module.model.model.decoder.layers.1.encoder_attn/aten::view/Reshape_4" type="Reshape" version="opset1">
			<data special_zero="false" />
			<input>
				<port id="0" precision="FP32">
					<dim>-1</dim>
					<dim>-1</dim>
					<dim>64</dim>
				</port>
				<port id="1" precision="I32">
					<dim>4</dim>
				</port>
			</input>
			<output>
				<port id="2" precision="FP32" names="401,attn_output.21">
					<dim>-1</dim>
					<dim>8</dim>
					<dim>-1</dim>
					<dim>64</dim>
				</port>
			</output>
		</layer>
		<layer id="366" name="__module.model.model.decoder.layers.1.encoder_attn/aten::transpose/ScatterElementsUpdate_4" type="Const" version="opset1">
			<data element_type="i32" shape="4" offset="109242396" size="16" />
			<output>
				<port id="0" precision="I32">
					<dim>4</dim>
				</port>
			</output>
		</layer>
		<layer id="367" name="__module.model.model.decoder.layers.1.encoder_attn/aten::transpose/Transpose_4" type="Transpose" version="opset1">
			<input>
				<port id="0" precision="FP32">
					<dim>-1</dim>
					<dim>8</dim>
					<dim>-1</dim>
					<dim>64</dim>
				</port>
				<port id="1" precision="I32">
					<dim>4</dim>
				</port>
			</input>
			<output>
				<port id="2" precision="FP32" names="402,attn_output.23">
					<dim>-1</dim>
					<dim>-1</dim>
					<dim>8</dim>
					<dim>64</dim>
				</port>
			</output>
		</layer>
		<layer id="368" name="__module.model.model.decoder.layers.1.encoder_attn/prim::ListConstruct/Reshape_1_7" type="Const" version="opset1">
			<data element_type="i32" shape="1" offset="111341744" size="4" />
			<output>
				<port id="0" precision="I32">
					<dim>1</dim>
				</port>
			</output>
		</layer>
		<layer id="369" name="__module.model.model.decoder.layers.1.encoder_attn/prim::ListConstruct/Concat_7" type="Concat" version="opset1">
			<data axis="0" />
			<input>
				<port id="0" precision="I32">
					<dim>1</dim>
				</port>
				<port id="1" precision="I32">
					<dim>1</dim>
				</port>
				<port id="2" precision="I32">
					<dim>1</dim>
				</port>
			</input>
			<output>
				<port id="3" precision="I32" names="403">
					<dim>3</dim>
				</port>
			</output>
		</layer>
		<layer id="370" name="__module.model.model.decoder.layers.1.encoder_attn/aten::reshape/Reshape_2" type="Reshape" version="opset1">
			<data special_zero="false" />
			<input>
				<port id="0" precision="FP32">
					<dim>-1</dim>
					<dim>-1</dim>
					<dim>8</dim>
					<dim>64</dim>
				</port>
				<port id="1" precision="I32">
					<dim>3</dim>
				</port>
			</input>
			<output>
				<port id="2" precision="FP32" names="404,input.51">
					<dim>-1</dim>
					<dim>-1</dim>
					<dim>512</dim>
				</port>
			</output>
		</layer>
		<layer id="371" name="Constant_19552" type="Const" version="opset1">
			<data element_type="f32" shape="512, 512" offset="132358324" size="1048576" />
			<output>
				<port id="0" precision="FP32" names="406,weight.91">
					<dim>512</dim>
					<dim>512</dim>
				</port>
			</output>
		</layer>
…
		<edge from-layer="436" from-port="0" to-layer="438" to-port="1" />
		<edge from-layer="437" from-port="0" to-layer="438" to-port="2" />
		<edge from-layer="438" from-port="3" to-layer="442" to-port="2" />
		<edge from-layer="438" from-port="3" to-layer="439" to-port="3" />
		<edge from-layer="439" from-port="4" to-layer="440" to-port="1" />
		<edge from-layer="440" from-port="2" to-layer="441" to-port="0" />
		<edge from-layer="441" from-port="2" to-layer="443" to-port="0" />
		<edge from-layer="442" from-port="3" to-layer="443" to-port="1" />
		<edge from-layer="443" from-port="2" to-layer="444" to-port="0" />
		<edge from-layer="444" from-port="1" to-layer="453" to-port="0" />
		<edge from-layer="445" from-port="0" to-layer="446" to-port="1" />
		<edge from-layer="446" from-port="2" to-layer="448" to-port="0" />
		<edge from-layer="447" from-port="0" to-layer="448" to-port="1" />
		<edge from-layer="448" from-port="2" to-layer="449" to-port="0" />
		<edge from-layer="449" from-port="2" to-layer="451" to-port="0" />
		<edge from-layer="450" from-port="0" to-layer="451" to-port="1" />
		<edge from-layer="451" from-port="2" to-layer="979" to-port="0" />
		<edge from-layer="451" from-port="2" to-layer="452" to-port="0" />
		<edge from-layer="452" from-port="2" to-layer="453" to-port="1" />
		<edge from-layer="453" from-port="2" to-layer="457" to-port="0" />
		<edge from-layer="454" from-port="0" to-layer="456" to-port="1" />
		<edge from-layer="455" from-port="0" to-layer="456" to-port="3" />
		<edge from-layer="456" from-port="4" to-layer="457" to-port="1" />
		<edge from-layer="457" from-port="2" to-layer="459" to-port="0" />
		<edge from-layer="458" from-port="0" to-layer="459" to-port="1" />
		<edge from-layer="459" from-port="2" to-layer="462" to-port="0" />
		<edge from-layer="460" from-port="0" to-layer="461" to-port="2" />
		<edge from-layer="461" from-port="3" to-layer="462" to-port="1" />
		<edge from-layer="462" from-port="2" to-layer="464" to-port="0" />
		<edge from-layer="463" from-port="0" to-layer="464" to-port="1" />
		<edge from-layer="464" from-port="2" to-layer="466" to-port="0" />
		<edge from-layer="465" from-port="0" to-layer="466" to-port="1" />
		<edge from-layer="466" from-port="2" to-layer="467" to-port="1" />
		<edge from-layer="467" from-port="2" to-layer="533" to-port="0" />
		<edge from-layer="467" from-port="2" to-layer="469" to-port="0" />
		<edge from-layer="468" from-port="0" to-layer="469" to-port="1" />
		<edge from-layer="469" from-port="2" to-layer="471" to-port="0" />
		<edge from-layer="470" from-port="0" to-layer="471" to-port="1" />
		<edge from-layer="471" from-port="2" to-layer="473" to-port="0" />
		<edge from-layer="472" from-port="0" to-layer="473" to-port="1" />
		<edge from-layer="473" from-port="2" to-layer="475" to-port="0" />
		<edge from-layer="473" from-port="2" to-layer="478" to-port="0" />
		<edge from-layer="474" from-port="0" to-layer="475" to-port="1" />
		<edge from-layer="475" from-port="2" to-layer="477" to-port="0" />
		<edge from-layer="476" from-port="0" to-layer="477" to-port="1" />
		<edge from-layer="477" from-port="2" to-layer="489" to-port="0" />
		<edge from-layer="478" from-port="1" to-layer="485" to-port="0" />
		<edge from-layer="478" from-port="1" to-layer="480" to-port="0" />
		<edge from-layer="479" from-port="0" to-layer="480" to-port="2" />
		<edge from-layer="480" from-port="3" to-layer="482" to-port="0" />
		<edge from-layer="480" from-port="3" to-layer="492" to-port="0" />
		<edge from-layer="481" from-port="0" to-layer="482" to-port="1" />
		<edge from-layer="482" from-port="2" to-layer="504" to-port="0" />
		<edge from-layer="482" from-port="2" to-layer="527" to-port="0" />
		<edge from-layer="482" from-port="2" to-layer="488" to-port="0" />
		<edge from-layer="482" from-port="2" to-layer="522" to-port="0" />
		<edge from-layer="483" from-port="0" to-layer="485" to-port="1" />
		<edge from-layer="484" from-port="0" to-layer="485" to-port="2" />
		<edge from-layer="485" from-port="3" to-layer="527" to-port="1" />
		<edge from-layer="485" from-port="3" to-layer="522" to-port="2" />
		<edge from-layer="485" from-port="3" to-layer="488" to-port="1" />
		<edge from-layer="486" from-port="0" to-layer="488" to-port="2" />
		<edge from-layer="487" from-port="0" to-layer="488" to-port="3" />
		<edge from-layer="488" from-port="4" to-layer="489" to-port="1" />
		<edge from-layer="489" from-port="2" to-layer="491" to-port="0" />
		<edge from-layer="490" from-port="0" to-layer="491" to-port="1" />
		<edge from-layer="491" from-port="2" to-layer="498" to-port="0" />
		<edge from-layer="492" from-port="2" to-layer="494" to-port="0" />
		<edge from-layer="493" from-port="0" to-layer="494" to-port="1" />
		<edge from-layer="494" from-port="2" to-layer="497" to-port="0" />
		<edge from-layer="495" from-port="0" to-layer="497" to-port="1" />
		<edge from-layer="496" from-port="0" to-layer="497" to-port="2" />
		<edge from-layer="497" from-port="3" to-layer="518" to-port="1" />
		<edge from-layer="497" from-port="3" to-layer="498" to-port="1" />
		<edge from-layer="497" from-port="3" to-layer="508" to-port="1" />
		<edge from-layer="498" from-port="2" to-layer="509" to-port="0" />
		<edge from-layer="499" from-port="0" to-layer="500" to-port="1" />
		<edge from-layer="500" from-port="2" to-layer="505" to-port="0" />
		<edge from-layer="501" from-port="0" to-layer="504" to-port="1" />
		<edge from-layer="502" from-port="0" to-layer="504" to-port="2" />
		<edge from-layer="503" from-port="0" to-layer="504" to-port="3" />
		<edge from-layer="504" from-port="4" to-layer="515" to-port="1" />
		<edge from-layer="504" from-port="4" to-layer="505" to-port="1" />
		<edge from-layer="505" from-port="2" to-layer="507" to-port="0" />
		<edge from-layer="506" from-port="0" to-layer="507" to-port="1" />
		<edge from-layer="507" from-port="2" to-layer="978" to-port="0" />
		<edge from-layer="507" from-port="2" to-layer="508" to-port="0" />
		<edge from-layer="508" from-port="2" to-layer="509" to-port="1" />
		<edge from-layer="509" from-port="2" to-layer="510" to-port="0" />
		<edge from-layer="510" from-port="1" to-layer="519" to-port="0" />
		<edge from-layer="511" from-port="0" to-layer="512" to-port="1" />
		<edge from-layer="512" from-port="2" to-layer="514" to-port="0" />
		<edge from-layer="513" from-port="0" to-layer="514" to-port="1" />
		<edge from-layer="514" from-port="2" to-layer="515" to-port="0" />
		<edge from-layer="515" from-port="2" to-layer="517" to-port="0" />
		<edge from-layer="516" from-port="0" to-layer="517" to-port="1" />
		<edge from-layer="517" from-port="2" to-layer="518" to-port="0" />
		<edge from-layer="517" from-port="2" to-layer="977" to-port="0" />
		<edge from-layer="518" from-port="2" to-layer="519" to-port="1" />
		<edge from-layer="519" from-port="2" to-layer="523" to-port="0" />
		<edge from-layer="520" from-port="0" to-layer="522" to-port="1" />
		<edge from-layer="521" from-port="0" to-layer="522" to-port="3" />
		<edge from-layer="522" from-port="4" to-layer="523" to-port="1" />
		<edge from-layer="523" from-port="2" to-layer="525" to-port="0" />
		<edge from-layer="524" from-port="0" to-layer="525" to-port="1" />
		<edge from-layer="525" from-port="2" to-layer="528" to-port="0" />
		<edge from-layer="526" from-port="0" to-layer="527" to-port="2" />
		<edge from-layer="527" from-port="3" to-layer="528" to-port="1" />
		<edge from-layer="528" from-port="2" to-layer="530" to-port="0" />
		<edge from-layer="529" from-port="0" to-layer="530" to-port="1" />
		<edge from-layer="530" from-port="2" to-layer="532" to-port="0" />
		<edge from-layer="531" from-port="0" to-layer="532" to-port="1" />
		<edge from-layer="532" from-port="2" to-layer="533" to-port="1" />
		<edge from-layer="533" from-port="2" to-layer="549" to-port="0" />
		<edge from-layer="533" from-port="2" to-layer="535" to-port="0" />
		<edge from-layer="534" from-port="0" to-layer="535" to-port="1" />
		<edge from-layer="535" from-port="2" to-layer="537" to-port="0" />
		<edge from-layer="536" from-port="0" to-layer="537" to-port="1" />
		<edge from-layer="537" from-port="2" to-layer="539" to-port="0" />
		<edge from-layer="538" from-port="0" to-layer="539" to-port="1" />
		<edge from-layer="539" from-port="2" to-layer="541" to-port="0" />
		<edge from-layer="540" from-port="0" to-layer="541" to-port="1" />
		<edge from-layer="541" from-port="2" to-layer="543" to-port="0" />
		<edge from-layer="542" from-port="0" to-layer="543" to-port="1" />
		<edge from-layer="543" from-port="2" to-layer="544" to-port="0" />
		<edge from-layer="544" from-port="1" to-layer="546" to-port="0" />
		<edge from-layer="545" from-port="0" to-layer="546" to-port="1" />
		<edge from-layer="546" from-port="2" to-layer="548" to-port="0" />
		<edge from-layer="547" from-port="0" to-layer="548" to-port="1" />
		<edge from-layer="548" from-port="2" to-layer="549" to-port="1" />
		<edge from-layer="549" from-port="2" to-layer="551" to-port="0" />
		<edge from-layer="549" from-port="2" to-layer="625" to-port="0" />
		<edge from-layer="550" from-port="0" to-layer="551" to-port="1" />
		<edge from-layer="551" from-port="2" to-layer="553" to-port="0" />
		<edge from-layer="552" from-port="0" to-layer="553" to-port="1" />
		<edge from-layer="553" from-port="2" to-layer="555" to-port="0" />
		<edge from-layer="554" from-port="0" to-layer="555" to-port="1" />
		<edge from-layer="555" from-port="2" to-layer="604" to-port="0" />
		<edge from-layer="555" from-port="2" to-layer="557" to-port="0" />
		<edge from-layer="555" from-port="2" to-layer="560" to-port="0" />
		<edge from-layer="555" from-port="2" to-layer="582" to-port="0" />
		<edge from-layer="556" from-port="0" to-layer="557" to-port="1" />
		<edge from-layer="557" from-port="2" to-layer="559" to-port="0" />
		<edge from-layer="558" from-port="0" to-layer="559" to-port="1" />
		<edge from-layer="559" from-port="2" to-layer="571" to-port="0" />
		<edge from-layer="560" from-port="1" to-layer="567" to-port="0" />
		<edge from-layer="560" from-port="1" to-layer="562" to-port="0" />
		<edge from-layer="561" from-port="0" to-layer="562" to-port="2" />
		<edge from-layer="562" from-port="3" to-layer="564" to-port="0" />
		<edge from-layer="562" from-port="3" to-layer="574" to-port="0" />
		<edge from-layer="563" from-port="0" to-layer="564" to-port="1" />
		<edge from-layer="564" from-port="2" to-layer="586" to-port="0" />
		<edge from-layer="564" from-port="2" to-layer="597" to-port="0" />
		<edge from-layer="564" from-port="2" to-layer="619" to-port="0" />
		<edge from-layer="564" from-port="2" to-layer="570" to-port="0" />
		<edge from-layer="564" from-port="2" to-layer="614" to-port="0" />
		<edge from-layer="565" from-port="0" to-layer="567" to-port="1" />
		<edge from-layer="566" from-port="0" to-layer="567" to-port="2" />
		<edge from-layer="567" from-port="3" to-layer="619" to-port="1" />
		<edge from-layer="567" from-port="3" to-layer="597" to-port="2" />
		<edge from-layer="567" from-port="3" to-layer="614" to-port="2" />
		<edge from-layer="567" from-port="3" to-layer="600" to-port="1" />
		<edge from-layer="567" from-port="3" to-layer="570" to-port="1" />
		<edge from-layer="568" from-port="0" to-layer="570" to-port="2" />
		<edge from-layer="569" from-port="0" to-layer="570" to-port="3" />
		<edge from-layer="570" from-port="4" to-layer="571" to-port="1" />
		<edge from-layer="571" from-port="2" to-layer="573" to-port="0" />
		<edge from-layer="572" from-port="0" to-layer="573" to-port="1" />
		<edge from-layer="573" from-port="2" to-layer="580" to-port="0" />
		<edge from-layer="574" from-port="2" to-layer="576" to-port="0" />
		<edge from-layer="575" from-port="0" to-layer="576" to-port="1" />
		<edge from-layer="576" from-port="2" to-layer="600" to-port="0" />
		<edge from-layer="576" from-port="2" to-layer="579" to-port="0" />
		<edge from-layer="577" from-port="0" to-layer="579" to-port="1" />
		<edge from-layer="578" from-port="0" to-layer="579" to-port="2" />
		<edge from-layer="579" from-port="3" to-layer="610" to-port="1" />
		<edge from-layer="579" from-port="3" to-layer="580" to-port="1" />
		<edge from-layer="579" from-port="3" to-layer="590" to-port="1" />
		<edge from-layer="580" from-port="2" to-layer="591" to-port="0" />
		<edge from-layer="581" from-port="0" to-layer="582" to-port="1" />
		<edge from-layer="582" from-port="2" to-layer="587" to-port="0" />
		<edge from-layer="583" from-port="0" to-layer="586" to-port="1" />
		<edge from-layer="584" from-port="0" to-layer="586" to-port="2" />
		<edge from-layer="585" from-port="0" to-layer="586" to-port="3" />
		<edge from-layer="586" from-port="4" to-layer="607" to-port="1" />
		<edge from-layer="586" from-port="4" to-layer="587" to-port="1" />
		<edge from-layer="587" from-port="2" to-layer="589" to-port="0" />
		<edge from-layer="588" from-port="0" to-layer="589" to-port="1" />
		<edge from-layer="589" from-port="2" to-layer="590" to-port="0" />
		<edge from-layer="589" from-port="2" to-layer="976" to-port="0" />
		<edge from-layer="590" from-port="2" to-layer="593" to-port="0" />
		<edge from-layer="590" from-port="2" to-layer="591" to-port="1" />
		<edge from-layer="591" from-port="2" to-layer="598" to-port="0" />
		<edge from-layer="592" from-port="0" to-layer="597" to-port="1" />
		<edge from-layer="593" from-port="1" to-layer="596" to-port="0" />
		<edge from-layer="594" from-port="0" to-layer="596" to-port="1" />
		<edge from-layer="595" from-port="0" to-layer="596" to-port="2" />
		<edge from-layer="596" from-port="3" to-layer="597" to-port="3" />
		<edge from-layer="596" from-port="3" to-layer="600" to-port="2" />
		<edge from-layer="597" from-port="4" to-layer="598" to-port="1" />
		<edge from-layer="598" from-port="2" to-layer="599" to-port="0" />
		<edge from-layer="599" from-port="2" to-layer="601" to-port="0" />
		<edge from-layer="600" from-port="3" to-layer="601" to-port="1" />
		<edge from-layer="601" from-port="2" to-layer="602" to-port="0" />
		<edge from-layer="602" from-port="1" to-layer="611" to-port="0" />
		<edge from-layer="603" from-port="0" to-layer="604" to-port="1" />
		<edge from-layer="604" from-port="2" to-layer="606" to-port="0" />
		<edge from-layer="605" from-port="0" to-layer="606" to-port="1" />
		<edge from-layer="606" from-port="2" to-layer="607" to-port="0" />
		<edge from-layer="607" from-port="2" to-layer="609" to-port="0" />
		<edge from-layer="608" from-port="0" to-layer="609" to-port="1" />
		<edge from-layer="609" from-port="2" to-layer="610" to-port="0" />
		<edge from-layer="609" from-port="2" to-layer="975" to-port="0" />
		<edge from-layer="610" from-port="2" to-layer="611" to-port="1" />
		<edge from-layer="611" from-port="2" to-layer="615" to-port="0" />
		<edge from-layer="612" from-port="0" to-layer="614" to-port="1" />
		<edge from-layer="613" from-port="0" to-layer="614" to-port="3" />
		<edge from-layer="614" from-port="4" to-layer="615" to-port="1" />
		<edge from-layer="615" from-port="2" to-layer="617" to-port="0" />
		<edge from-layer="616" from-port="0" to-layer="617" to-port="1" />
		<edge from-layer="617" from-port="2" to-layer="620" to-port="0" />
		<edge from-layer="618" from-port="0" to-layer="619" to-port="2" />
		<edge from-layer="619" from-port="3" to-layer="620" to-port="1" />
		<edge from-layer="620" from-port="2" to-layer="622" to-port="0" />
		<edge from-layer="621" from-port="0" to-layer="622" to-port="1" />
		<edge from-layer="622" from-port="2" to-layer="624" to-port="0" />
		<edge from-layer="623" from-port="0" to-layer="624" to-port="1" />
		<edge from-layer="624" from-port="2" to-layer="625" to-port="1" />
		<edge from-layer="625" from-port="2" to-layer="691" to-port="0" />
		<edge from-layer="625" from-port="2" to-layer="627" to-port="0" />
		<edge from-layer="626" from-port="0" to-layer="627" to-port="1" />
		<edge from-layer="627" from-port="2" to-layer="629" to-port="0" />
		<edge from-layer="628" from-port="0" to-layer="629" to-port="1" />
		<edge from-layer="629" from-port="2" to-layer="631" to-port="0" />
		<edge from-layer="630" from-port="0" to-layer="631" to-port="1" />
		<edge from-layer="631" from-port="2" to-layer="633" to-port="0" />
		<edge from-layer="631" from-port="2" to-layer="636" to-port="0" />
		<edge from-layer="632" from-port="0" to-layer="633" to-port="1" />
		<edge from-layer="633" from-port="2" to-layer="635" to-port="0" />
		<edge from-layer="634" from-port="0" to-layer="635" to-port="1" />
		<edge from-layer="635" from-port="2" to-layer="647" to-port="0" />
		<edge from-layer="636" from-port="1" to-layer="638" to-port="0" />
		<edge from-layer="636" from-port="1" to-layer="643" to-port="0" />
		<edge from-layer="637" from-port="0" to-layer="638" to-port="2" />
		<edge from-layer="638" from-port="3" to-layer="650" to-port="0" />
		<edge from-layer="638" from-port="3" to-layer="640" to-port="0" />
		<edge from-layer="639" from-port="0" to-layer="640" to-port="1" />
		<edge from-layer="640" from-port="2" to-layer="685" to-port="0" />
		<edge from-layer="640" from-port="2" to-layer="662" to-port="0" />
		<edge from-layer="640" from-port="2" to-layer="646" to-port="0" />
		<edge from-layer="640" from-port="2" to-layer="680" to-port="0" />
		<edge from-layer="641" from-port="0" to-layer="643" to-port="1" />
		<edge from-layer="642" from-port="0" to-layer="643" to-port="2" />
		<edge from-layer="643" from-port="3" to-layer="646" to-port="1" />
		<edge from-layer="643" from-port="3" to-layer="680" to-port="2" />
		<edge from-layer="643" from-port="3" to-layer="685" to-port="1" />
		<edge from-layer="644" from-port="0" to-layer="646" to-port="2" />
		<edge from-layer="645" from-port="0" to-layer="646" to-port="3" />
		<edge from-layer="646" from-port="4" to-layer="647" to-port="1" />
		<edge from-layer="647" from-port="2" to-layer="649" to-port="0" />
		<edge from-layer="648" from-port="0" to-layer="649" to-port="1" />
		<edge from-layer="649" from-port="2" to-layer="656" to-port="0" />
		<edge from-layer="650" from-port="2" to-layer="652" to-port="0" />
		<edge from-layer="651" from-port="0" to-layer="652" to-port="1" />
		<edge from-layer="652" from-port="2" to-layer="655" to-port="0" />
		<edge from-layer="653" from-port="0" to-layer="655" to-port="1" />
		<edge from-layer="654" from-port="0" to-layer="655" to-port="2" />
		<edge from-layer="655" from-port="3" to-layer="656" to-port="1" />
		<edge from-layer="655" from-port="3" to-layer="666" to-port="1" />
		<edge from-layer="655" from-port="3" to-layer="676" to-port="1" />
		<edge from-layer="656" from-port="2" to-layer="667" to-port="0" />
		<edge from-layer="657" from-port="0" to-layer="658" to-port="1" />
		<edge from-layer="658" from-port="2" to-layer="663" to-port="0" />
		<edge from-layer="659" from-port="0" to-layer="662" to-port="1" />
		<edge from-layer="660" from-port="0" to-layer="662" to-port="2" />
		<edge from-layer="661" from-port="0" to-layer="662" to-port="3" />
		<edge from-layer="662" from-port="4" to-layer="663" to-port="1" />
		<edge from-layer="662" from-port="4" to-layer="673" to-port="1" />
		<edge from-layer="663" from-port="2" to-layer="665" to-port="0" />
		<edge from-layer="664" from-port="0" to-layer="665" to-port="1" />
		<edge from-layer="665" from-port="2" to-layer="666" to-port="0" />
		<edge from-layer="665" from-port="2" to-layer="974" to-port="0" />
		<edge from-layer="666" from-port="2" to-layer="667" to-port="1" />
		<edge from-layer="667" from-port="2" to-layer="668" to-port="0" />
		<edge from-layer="668" from-port="1" to-layer="677" to-port="0" />
		<edge from-layer="669" from-port="0" to-layer="670" to-port="1" />
		<edge from-layer="670" from-port="2" to-layer="672" to-port="0" />
		<edge from-layer="671" from-port="0" to-layer="672" to-port="1" />
		<edge from-layer="672" from-port="2" to-layer="673" to-port="0" />
		<edge from-layer="673" from-port="2" to-layer="675" to-port="0" />
		<edge from-layer="674" from-port="0" to-layer="675" to-port="1" />
		<edge from-layer="675" from-port="2" to-layer="676" to-port="0" />
		<edge from-layer="675" from-port="2" to-layer="973" to-port="0" />
		<edge from-layer="676" from-port="2" to-layer="677" to-port="1" />
		<edge from-layer="677" from-port="2" to-layer="681" to-port="0" />
		<edge from-layer="678" from-port="0" to-layer="680" to-port="1" />
		<edge from-layer="679" from-port="0" to-layer="680" to-port="3" />
		<edge from-layer="680" from-port="4" to-layer="681" to-port="1" />
		<edge from-layer="681" from-port="2" to-layer="683" to-port="0" />
		<edge from-layer="682" from-port="0" to-layer="683" to-port="1" />
		<edge from-layer="683" from-port="2" to-layer="686" to-port="0" />
		<edge from-layer="684" from-port="0" to-layer="685" to-port="2" />
		<edge from-layer="685" from-port="3" to-layer="686" to-port="1" />
		<edge from-layer="686" from-port="2" to-layer="688" to-port="0" />
		<edge from-layer="687" from-port="0" to-layer="688" to-port="1" />
		<edge from-layer="688" from-port="2" to-layer="690" to-port="0" />
		<edge from-layer="689" from-port="0" to-layer="690" to-port="1" />
		<edge from-layer="690" from-port="2" to-layer="691" to-port="1" />
		<edge from-layer="691" from-port="2" to-layer="693" to-port="0" />
		<edge from-layer="691" from-port="2" to-layer="707" to-port="0" />
		<edge from-layer="692" from-port="0" to-layer="693" to-port="1" />
		<edge from-layer="693" from-port="2" to-layer="695" to-port="0" />
		<edge from-layer="694" from-port="0" to-layer="695" to-port="1" />
		<edge from-layer="695" from-port="2" to-layer="697" to-port="0" />
		<edge from-layer="696" from-port="0" to-layer="697" to-port="1" />
		<edge from-layer="697" from-port="2" to-layer="699" to-port="0" />
		<edge from-layer="698" from-port="0" to-layer="699" to-port="1" />
		<edge from-layer="699" from-port="2" to-layer="701" to-port="0" />
		<edge from-layer="700" from-port="0" to-layer="701" to-port="1" />
		<edge from-layer="701" from-port="2" to-layer="702" to-port="0" />
		<edge from-layer="702" from-port="1" to-layer="704" to-port="0" />
		<edge from-layer="703" from-port="0" to-layer="704" to-port="1" />
		<edge from-layer="704" from-port="2" to-layer="706" to-port="0" />
		<edge from-layer="705" from-port="0" to-layer="706" to-port="1" />
		<edge from-layer="706" from-port="2" to-layer="707" to-port="1" />
		<edge from-layer="707" from-port="2" to-layer="709" to-port="0" />
		<edge from-layer="707" from-port="2" to-layer="783" to-port="0" />
		<edge from-layer="708" from-port="0" to-layer="709" to-port="1" />
		<edge from-layer="709" from-port="2" to-layer="711" to-port="0" />
		<edge from-layer="710" from-port="0" to-layer="711" to-port="1" />
		<edge from-layer="711" from-port="2" to-layer="713" to-port="0" />
		<edge from-layer="712" from-port="0" to-layer="713" to-port="1" />
		<edge from-layer="713" from-port="2" to-layer="762" to-port="0" />
		<edge from-layer="713" from-port="2" to-layer="740" to-port="0" />
		<edge from-layer="713" from-port="2" to-layer="718" to-port="0" />
		<edge from-layer="713" from-port="2" to-layer="715" to-port="0" />
		<edge from-layer="714" from-port="0" to-layer="715" to-port="1" />
		<edge from-layer="715" from-port="2" to-layer="717" to-port="0" />
		<edge from-layer="716" from-port="0" to-layer="717" to-port="1" />
		<edge from-layer="717" from-port="2" to-layer="729" to-port="0" />
		<edge from-layer="718" from-port="1" to-layer="720" to-port="0" />
		<edge from-layer="718" from-port="1" to-layer="725" to-port="0" />
		<edge from-layer="719" from-port="0" to-layer="720" to-port="2" />
		<edge from-layer="720" from-port="3" to-layer="732" to-port="0" />
		<edge from-layer="720" from-port="3" to-layer="722" to-port="0" />
		<edge from-layer="721" from-port="0" to-layer="722" to-port="1" />
		<edge from-layer="722" from-port="2" to-layer="777" to-port="0" />
		<edge from-layer="722" from-port="2" to-layer="772" to-port="0" />
		<edge from-layer="722" from-port="2" to-layer="728" to-port="0" />
		<edge from-layer="722" from-port="2" to-layer="755" to-port="0" />
		<edge from-layer="722" from-port="2" to-layer="744" to-port="0" />
		<edge from-layer="723" from-port="0" to-layer="725" to-port="1" />
		<edge from-layer="724" from-port="0" to-layer="725" to-port="2" />
		<edge from-layer="725" from-port="3" to-layer="728" to-port="1" />
		<edge from-layer="725" from-port="3" to-layer="777" to-port="1" />
		<edge from-layer="725" from-port="3" to-layer="772" to-port="2" />
		<edge from-layer="725" from-port="3" to-layer="758" to-port="1" />
		<edge from-layer="725" from-port="3" to-layer="755" to-port="2" />
		<edge from-layer="726" from-port="0" to-layer="728" to-port="2" />
		<edge from-layer="727" from-port="0" to-layer="728" to-port="3" />
		<edge from-layer="728" from-port="4" to-layer="729" to-port="1" />
		<edge from-layer="729" from-port="2" to-layer="731" to-port="0" />
		<edge from-layer="730" from-port="0" to-layer="731" to-port="1" />
		<edge from-layer="731" from-port="2" to-layer="738" to-port="0" />
		<edge from-layer="732" from-port="2" to-layer="734" to-port="0" />
		<edge from-layer="733" from-port="0" to-layer="734" to-port="1" />
		<edge from-layer="734" from-port="2" to-layer="758" to-port="0" />
		<edge from-layer="734" from-port="2" to-layer="737" to-port="0" />
		<edge from-layer="735" from-port="0" to-layer="737" to-port="1" />
		<edge from-layer="736" from-port="0" to-layer="737" to-port="2" />
		<edge from-layer="737" from-port="3" to-layer="768" to-port="1" />
		<edge from-layer="737" from-port="3" to-layer="748" to-port="1" />
		<edge from-layer="737" from-port="3" to-layer="738" to-port="1" />
		<edge from-layer="738" from-port="2" to-layer="749" to-port="0" />
		<edge from-layer="739" from-port="0" to-layer="740" to-port="1" />
		<edge from-layer="740" from-port="2" to-layer="745" to-port="0" />
		<edge from-layer="741" from-port="0" to-layer="744" to-port="1" />
		<edge from-layer="742" from-port="0" to-layer="744" to-port="2" />
		<edge from-layer="743" from-port="0" to-layer="744" to-port="3" />
		<edge from-layer="744" from-port="4" to-layer="765" to-port="1" />
		<edge from-layer="744" from-port="4" to-layer="745" to-port="1" />
		<edge from-layer="745" from-port="2" to-layer="747" to-port="0" />
		<edge from-layer="746" from-port="0" to-layer="747" to-port="1" />
		<edge from-layer="747" from-port="2" to-layer="972" to-port="0" />
		<edge from-layer="747" from-port="2" to-layer="748" to-port="0" />
		<edge from-layer="748" from-port="2" to-layer="751" to-port="0" />
		<edge from-layer="748" from-port="2" to-layer="749" to-port="1" />
		<edge from-layer="749" from-port="2" to-layer="756" to-port="0" />
		<edge from-layer="750" from-port="0" to-layer="755" to-port="1" />
		<edge from-layer="751" from-port="1" to-layer="754" to-port="0" />
		<edge from-layer="752" from-port="0" to-layer="754" to-port="1" />
		<edge from-layer="753" from-port="0" to-layer="754" to-port="2" />
		<edge from-layer="754" from-port="3" to-layer="758" to-port="2" />
		<edge from-layer="754" from-port="3" to-layer="755" to-port="3" />
		<edge from-layer="755" from-port="4" to-layer="756" to-port="1" />
		<edge from-layer="756" from-port="2" to-layer="757" to-port="0" />
		<edge from-layer="757" from-port="2" to-layer="759" to-port="0" />
		<edge from-layer="758" from-port="3" to-layer="759" to-port="1" />
		<edge from-layer="759" from-port="2" to-layer="760" to-port="0" />
		<edge from-layer="760" from-port="1" to-layer="769" to-port="0" />
		<edge from-layer="761" from-port="0" to-layer="762" to-port="1" />
		<edge from-layer="762" from-port="2" to-layer="764" to-port="0" />
		<edge from-layer="763" from-port="0" to-layer="764" to-port="1" />
		<edge from-layer="764" from-port="2" to-layer="765" to-port="0" />
		<edge from-layer="765" from-port="2" to-layer="767" to-port="0" />
		<edge from-layer="766" from-port="0" to-layer="767" to-port="1" />
		<edge from-layer="767" from-port="2" to-layer="768" to-port="0" />
		<edge from-layer="767" from-port="2" to-layer="971" to-port="0" />
		<edge from-layer="768" from-port="2" to-layer="769" to-port="1" />
		<edge from-layer="769" from-port="2" to-layer="773" to-port="0" />
		<edge from-layer="770" from-port="0" to-layer="772" to-port="1" />
		<edge from-layer="771" from-port="0" to-layer="772" to-port="3" />
		<edge from-layer="772" from-port="4" to-layer="773" to-port="1" />
		<edge from-layer="773" from-port="2" to-layer="775" to-port="0" />
		<edge from-layer="774" from-port="0" to-layer="775" to-port="1" />
		<edge from-layer="775" from-port="2" to-layer="778" to-port="0" />
		<edge from-layer="776" from-port="0" to-layer="777" to-port="2" />
		<edge from-layer="777" from-port="3" to-layer="778" to-port="1" />
		<edge from-layer="778" from-port="2" to-layer="780" to-port="0" />
		<edge from-layer="779" from-port="0" to-layer="780" to-port="1" />
		<edge from-layer="780" from-port="2" to-layer="782" to-port="0" />
		<edge from-layer="781" from-port="0" to-layer="782" to-port="1" />
		<edge from-layer="782" from-port="2" to-layer="783" to-port="1" />
		<edge from-layer="783" from-port="2" to-layer="849" to-port="0" />
		<edge from-layer="783" from-port="2" to-layer="785" to-port="0" />
		<edge from-layer="784" from-port="0" to-layer="785" to-port="1" />
		<edge from-layer="785" from-port="2" to-layer="787" to-port="0" />
		<edge from-layer="786" from-port="0" to-layer="787" to-port="1" />
		<edge from-layer="787" from-port="2" to-layer="789" to-port="0" />
		<edge from-layer="788" from-port="0" to-layer="789" to-port="1" />
		<edge from-layer="789" from-port="2" to-layer="791" to-port="0" />
		<edge from-layer="789" from-port="2" to-layer="794" to-port="0" />
		<edge from-layer="790" from-port="0" to-layer="791" to-port="1" />
		<edge from-layer="791" from-port="2" to-layer="793" to-port="0" />
		<edge from-layer="792" from-port="0" to-layer="793" to-port="1" />
		<edge from-layer="793" from-port="2" to-layer="805" to-port="0" />
		<edge from-layer="794" from-port="1" to-layer="796" to-port="0" />
		<edge from-layer="794" from-port="1" to-layer="801" to-port="0" />
		<edge from-layer="795" from-port="0" to-layer="796" to-port="2" />
		<edge from-layer="796" from-port="3" to-layer="808" to-port="0" />
		<edge from-layer="796" from-port="3" to-layer="798" to-port="0" />
		<edge from-layer="797" from-port="0" to-layer="798" to-port="1" />
		<edge from-layer="798" from-port="2" to-layer="843" to-port="0" />
		<edge from-layer="798" from-port="2" to-layer="820" to-port="0" />
		<edge from-layer="798" from-port="2" to-layer="838" to-port="0" />
		<edge from-layer="798" from-port="2" to-layer="804" to-port="0" />
		<edge from-layer="799" from-port="0" to-layer="801" to-port="1" />
		<edge from-layer="800" from-port="0" to-layer="801" to-port="2" />
		<edge from-layer="801" from-port="3" to-layer="804" to-port="1" />
		<edge from-layer="801" from-port="3" to-layer="838" to-port="2" />
		<edge from-layer="801" from-port="3" to-layer="843" to-port="1" />
		<edge from-layer="802" from-port="0" to-layer="804" to-port="2" />
		<edge from-layer="803" from-port="0" to-layer="804" to-port="3" />
		<edge from-layer="804" from-port="4" to-layer="805" to-port="1" />
		<edge from-layer="805" from-port="2" to-layer="807" to-port="0" />
		<edge from-layer="806" from-port="0" to-layer="807" to-port="1" />
		<edge from-layer="807" from-port="2" to-layer="814" to-port="0" />
		<edge from-layer="808" from-port="2" to-layer="810" to-port="0" />
		<edge from-layer="809" from-port="0" to-layer="810" to-port="1" />
		<edge from-layer="810" from-port="2" to-layer="813" to-port="0" />
		<edge from-layer="811" from-port="0" to-layer="813" to-port="1" />
		<edge from-layer="812" from-port="0" to-layer="813" to-port="2" />
		<edge from-layer="813" from-port="3" to-layer="834" to-port="1" />
		<edge from-layer="813" from-port="3" to-layer="824" to-port="1" />
		<edge from-layer="813" from-port="3" to-layer="814" to-port="1" />
		<edge from-layer="814" from-port="2" to-layer="825" to-port="0" />
		<edge from-layer="815" from-port="0" to-layer="816" to-port="1" />
		<edge from-layer="816" from-port="2" to-layer="821" to-port="0" />
		<edge from-layer="817" from-port="0" to-layer="820" to-port="1" />
		<edge from-layer="818" from-port="0" to-layer="820" to-port="2" />
		<edge from-layer="819" from-port="0" to-layer="820" to-port="3" />
		<edge from-layer="820" from-port="4" to-layer="821" to-port="1" />
		<edge from-layer="820" from-port="4" to-layer="831" to-port="1" />
		<edge from-layer="821" from-port="2" to-layer="823" to-port="0" />
		<edge from-layer="822" from-port="0" to-layer="823" to-port="1" />
		<edge from-layer="823" from-port="2" to-layer="970" to-port="0" />
		<edge from-layer="823" from-port="2" to-layer="824" to-port="0" />
		<edge from-layer="824" from-port="2" to-layer="825" to-port="1" />
		<edge from-layer="825" from-port="2" to-layer="826" to-port="0" />
		<edge from-layer="826" from-port="1" to-layer="835" to-port="0" />
		<edge from-layer="827" from-port="0" to-layer="828" to-port="1" />
		<edge from-layer="828" from-port="2" to-layer="830" to-port="0" />
		<edge from-layer="829" from-port="0" to-layer="830" to-port="1" />
		<edge from-layer="830" from-port="2" to-layer="831" to-port="0" />
		<edge from-layer="831" from-port="2" to-layer="833" to-port="0" />
		<edge from-layer="832" from-port="0" to-layer="833" to-port="1" />
		<edge from-layer="833" from-port="2" to-layer="969" to-port="0" />
		<edge from-layer="833" from-port="2" to-layer="834" to-port="0" />
		<edge from-layer="834" from-port="2" to-layer="835" to-port="1" />
		<edge from-layer="835" from-port="2" to-layer="839" to-port="0" />
		<edge from-layer="836" from-port="0" to-layer="838" to-port="1" />
		<edge from-layer="837" from-port="0" to-layer="838" to-port="3" />
		<edge from-layer="838" from-port="4" to-layer="839" to-port="1" />
		<edge from-layer="839" from-port="2" to-layer="841" to-port="0" />
		<edge from-layer="840" from-port="0" to-layer="841" to-port="1" />
		<edge from-layer="841" from-port="2" to-layer="844" to-port="0" />
		<edge from-layer="842" from-port="0" to-layer="843" to-port="2" />
		<edge from-layer="843" from-port="3" to-layer="844" to-port="1" />
		<edge from-layer="844" from-port="2" to-layer="846" to-port="0" />
		<edge from-layer="845" from-port="0" to-layer="846" to-port="1" />
		<edge from-layer="846" from-port="2" to-layer="848" to-port="0" />
		<edge from-layer="847" from-port="0" to-layer="848" to-port="1" />
		<edge from-layer="848" from-port="2" to-layer="849" to-port="1" />
		<edge from-layer="849" from-port="2" to-layer="851" to-port="0" />
		<edge from-layer="849" from-port="2" to-layer="865" to-port="0" />
		<edge from-layer="850" from-port="0" to-layer="851" to-port="1" />
		<edge from-layer="851" from-port="2" to-layer="853" to-port="0" />
		<edge from-layer="852" from-port="0" to-layer="853" to-port="1" />
		<edge from-layer="853" from-port="2" to-layer="855" to-port="0" />
		<edge from-layer="854" from-port="0" to-layer="855" to-port="1" />
		<edge from-layer="855" from-port="2" to-layer="857" to-port="0" />
		<edge from-layer="856" from-port="0" to-layer="857" to-port="1" />
		<edge from-layer="857" from-port="2" to-layer="859" to-port="0" />
		<edge from-layer="858" from-port="0" to-layer="859" to-port="1" />
		<edge from-layer="859" from-port="2" to-layer="860" to-port="0" />
		<edge from-layer="860" from-port="1" to-layer="862" to-port="0" />
		<edge from-layer="861" from-port="0" to-layer="862" to-port="1" />
		<edge from-layer="862" from-port="2" to-layer="864" to-port="0" />
		<edge from-layer="863" from-port="0" to-layer="864" to-port="1" />
		<edge from-layer="864" from-port="2" to-layer="865" to-port="1" />
		<edge from-layer="865" from-port="2" to-layer="867" to-port="0" />
		<edge from-layer="865" from-port="2" to-layer="941" to-port="0" />
		<edge from-layer="866" from-port="0" to-layer="867" to-port="1" />
		<edge from-layer="867" from-port="2" to-layer="869" to-port="0" />
		<edge from-layer="868" from-port="0" to-layer="869" to-port="1" />
		<edge from-layer="869" from-port="2" to-layer="871" to-port="0" />
		<edge from-layer="870" from-port="0" to-layer="871" to-port="1" />
		<edge from-layer="871" from-port="2" to-layer="898" to-port="0" />
		<edge from-layer="871" from-port="2" to-layer="876" to-port="0" />
		<edge from-layer="871" from-port="2" to-layer="873" to-port="0" />
		<edge from-layer="871" from-port="2" to-layer="920" to-port="0" />
		<edge from-layer="872" from-port="0" to-layer="873" to-port="1" />
		<edge from-layer="873" from-port="2" to-layer="875" to-port="0" />
		<edge from-layer="874" from-port="0" to-layer="875" to-port="1" />
		<edge from-layer="875" from-port="2" to-layer="887" to-port="0" />
		<edge from-layer="876" from-port="1" to-layer="883" to-port="0" />
		<edge from-layer="876" from-port="1" to-layer="878" to-port="0" />
		<edge from-layer="877" from-port="0" to-layer="878" to-port="2" />
		<edge from-layer="878" from-port="3" to-layer="880" to-port="0" />
		<edge from-layer="878" from-port="3" to-layer="890" to-port="0" />
		<edge from-layer="879" from-port="0" to-layer="880" to-port="1" />
		<edge from-layer="880" from-port="2" to-layer="902" to-port="0" />
		<edge from-layer="880" from-port="2" to-layer="886" to-port="0" />
		<edge from-layer="880" from-port="2" to-layer="935" to-port="0" />
		<edge from-layer="880" from-port="2" to-layer="913" to-port="0" />
		<edge from-layer="880" from-port="2" to-layer="930" to-port="0" />
		<edge from-layer="881" from-port="0" to-layer="883" to-port="1" />
		<edge from-layer="882" from-port="0" to-layer="883" to-port="2" />
		<edge from-layer="883" from-port="3" to-layer="886" to-port="1" />
		<edge from-layer="883" from-port="3" to-layer="935" to-port="1" />
		<edge from-layer="883" from-port="3" to-layer="930" to-port="2" />
		<edge from-layer="883" from-port="3" to-layer="913" to-port="2" />
		<edge from-layer="883" from-port="3" to-layer="916" to-port="1" />
		<edge from-layer="884" from-port="0" to-layer="886" to-port="2" />
		<edge from-layer="885" from-port="0" to-layer="886" to-port="3" />
		<edge from-layer="886" from-port="4" to-layer="887" to-port="1" />
		<edge from-layer="887" from-port="2" to-layer="889" to-port="0" />
		<edge from-layer="888" from-port="0" to-layer="889" to-port="1" />
		<edge from-layer="889" from-port="2" to-layer="896" to-port="0" />
		<edge from-layer="890" from-port="2" to-layer="892" to-port="0" />
		<edge from-layer="891" from-port="0" to-layer="892" to-port="1" />
		<edge from-layer="892" from-port="2" to-layer="895" to-port="0" />
		<edge from-layer="892" from-port="2" to-layer="916" to-port="0" />
		<edge from-layer="893" from-port="0" to-layer="895" to-port="1" />
		<edge from-layer="894" from-port="0" to-layer="895" to-port="2" />
		<edge from-layer="895" from-port="3" to-layer="896" to-port="1" />
		<edge from-layer="895" from-port="3" to-layer="906" to-port="1" />
		<edge from-layer="895" from-port="3" to-layer="926" to-port="1" />
		<edge from-layer="896" from-port="2" to-layer="907" to-port="0" />
		<edge from-layer="897" from-port="0" to-layer="898" to-port="1" />
		<edge from-layer="898" from-port="2" to-layer="903" to-port="0" />
		<edge from-layer="899" from-port="0" to-layer="902" to-port="1" />
		<edge from-layer="900" from-port="0" to-layer="902" to-port="2" />
		<edge from-layer="901" from-port="0" to-layer="902" to-port="3" />
		<edge from-layer="902" from-port="4" to-layer="903" to-port="1" />
		<edge from-layer="902" from-port="4" to-layer="923" to-port="1" />
		<edge from-layer="903" from-port="2" to-layer="905" to-port="0" />
		<edge from-layer="904" from-port="0" to-layer="905" to-port="1" />
		<edge from-layer="905" from-port="2" to-layer="906" to-port="0" />
		<edge from-layer="905" from-port="2" to-layer="968" to-port="0" />
		<edge from-layer="906" from-port="2" to-layer="907" to-port="1" />
		<edge from-layer="906" from-port="2" to-layer="909" to-port="0" />
		<edge from-layer="907" from-port="2" to-layer="914" to-port="0" />
		<edge from-layer="908" from-port="0" to-layer="913" to-port="1" />
		<edge from-layer="909" from-port="1" to-layer="912" to-port="0" />
		<edge from-layer="910" from-port="0" to-layer="912" to-port="1" />
		<edge from-layer="911" from-port="0" to-layer="912" to-port="2" />
		<edge from-layer="912" from-port="3" to-layer="913" to-port="3" />
		<edge from-layer="912" from-port="3" to-layer="916" to-port="2" />
		<edge from-layer="913" from-port="4" to-layer="914" to-port="1" />
		<edge from-layer="914" from-port="2" to-layer="915" to-port="0" />
		<edge from-layer="915" from-port="2" to-layer="917" to-port="0" />
		<edge from-layer="916" from-port="3" to-layer="917" to-port="1" />
		<edge from-layer="917" from-port="2" to-layer="918" to-port="0" />
		<edge from-layer="918" from-port="1" to-layer="927" to-port="0" />
		<edge from-layer="919" from-port="0" to-layer="920" to-port="1" />
		<edge from-layer="920" from-port="2" to-layer="922" to-port="0" />
		<edge from-layer="921" from-port="0" to-layer="922" to-port="1" />
		<edge from-layer="922" from-port="2" to-layer="923" to-port="0" />
		<edge from-layer="923" from-port="2" to-layer="925" to-port="0" />
		<edge from-layer="924" from-port="0" to-layer="925" to-port="1" />
		<edge from-layer="925" from-port="2" to-layer="967" to-port="0" />
		<edge from-layer="925" from-port="2" to-layer="926" to-port="0" />
		<edge from-layer="926" from-port="2" to-layer="927" to-port="1" />
		<edge from-layer="927" from-port="2" to-layer="931" to-port="0" />
		<edge from-layer="928" from-port="0" to-layer="930" to-port="1" />
		<edge from-layer="929" from-port="0" to-layer="930" to-port="3" />
		<edge from-layer="930" from-port="4" to-layer="931" to-port="1" />
		<edge from-layer="931" from-port="2" to-layer="933" to-port="0" />
		<edge from-layer="932" from-port="0" to-layer="933" to-port="1" />
		<edge from-layer="933" from-port="2" to-layer="936" to-port="0" />
		<edge from-layer="934" from-port="0" to-layer="935" to-port="2" />
		<edge from-layer="935" from-port="3" to-layer="936" to-port="1" />
		<edge from-layer="936" from-port="2" to-layer="938" to-port="0" />
		<edge from-layer="937" from-port="0" to-layer="938" to-port="1" />
		<edge from-layer="938" from-port="2" to-layer="940" to-port="0" />
		<edge from-layer="939" from-port="0" to-layer="940" to-port="1" />
		<edge from-layer="940" from-port="2" to-layer="941" to-port="1" />
		<edge from-layer="941" from-port="2" to-layer="943" to-port="0" />
		<edge from-layer="941" from-port="2" to-layer="1027" to-port="0" />
		<edge from-layer="942" from-port="0" to-layer="943" to-port="1" />
		<edge from-layer="943" from-port="2" to-layer="945" to-port="0" />
		<edge from-layer="944" from-port="0" to-layer="945" to-port="1" />
		<edge from-layer="945" from-port="2" to-layer="947" to-port="0" />
		<edge from-layer="946" from-port="0" to-layer="947" to-port="1" />
		<edge from-layer="947" from-port="2" to-layer="948" to-port="0" />
		<edge from-layer="947" from-port="2" to-layer="990" to-port="0" />
		<edge from-layer="948" from-port="1" to-layer="950" to-port="0" />
		<edge from-layer="948" from-port="1" to-layer="995" to-port="0" />
		<edge from-layer="949" from-port="0" to-layer="950" to-port="2" />
		<edge from-layer="950" from-port="3" to-layer="952" to-port="0" />
		<edge from-layer="950" from-port="3" to-layer="1002" to-port="0" />
		<edge from-layer="951" from-port="0" to-layer="952" to-port="1" />
		<edge from-layer="952" from-port="2" to-layer="956" to-port="0" />
		<edge from-layer="952" from-port="2" to-layer="998" to-port="0" />
		<edge from-layer="952" from-port="2" to-layer="1016" to-port="0" />
		<edge from-layer="952" from-port="2" to-layer="1021" to-port="0" />
		<edge from-layer="953" from-port="0" to-layer="956" to-port="1" />
		<edge from-layer="954" from-port="0" to-layer="956" to-port="2" />
		<edge from-layer="955" from-port="0" to-layer="956" to-port="3" />
		<edge from-layer="956" from-port="4" to-layer="963" to-port="1" />
		<edge from-layer="956" from-port="4" to-layer="957" to-port="1" />
		<edge from-layer="957" from-port="2" to-layer="959" to-port="0" />
		<edge from-layer="958" from-port="0" to-layer="959" to-port="1" />
		<edge from-layer="959" from-port="2" to-layer="960" to-port="0" />
		<edge from-layer="959" from-port="2" to-layer="1012" to-port="0" />
		<edge from-layer="961" from-port="0" to-layer="962" to-port="1" />
		<edge from-layer="962" from-port="2" to-layer="963" to-port="0" />
		<edge from-layer="963" from-port="2" to-layer="965" to-port="0" />
		<edge from-layer="964" from-port="0" to-layer="965" to-port="1" />
		<edge from-layer="965" from-port="2" to-layer="966" to-port="0" />
		<edge from-layer="965" from-port="2" to-layer="1009" to-port="0" />
		<edge from-layer="989" from-port="0" to-layer="990" to-port="1" />
		<edge from-layer="990" from-port="2" to-layer="992" to-port="0" />
		<edge from-layer="991" from-port="0" to-layer="992" to-port="1" />
		<edge from-layer="992" from-port="2" to-layer="999" to-port="0" />
		<edge from-layer="993" from-port="0" to-layer="995" to-port="1" />
		<edge from-layer="994" from-port="0" to-layer="995" to-port="2" />
		<edge from-layer="995" from-port="3" to-layer="998" to-port="1" />
		<edge from-layer="995" from-port="3" to-layer="1016" to-port="2" />
		<edge from-layer="995" from-port="3" to-layer="1021" to-port="1" />
		<edge from-layer="996" from-port="0" to-layer="998" to-port="2" />
		<edge from-layer="997" from-port="0" to-layer="998" to-port="3" />
		<edge from-layer="998" from-port="4" to-layer="999" to-port="1" />
		<edge from-layer="999" from-port="2" to-layer="1001" to-port="0" />
		<edge from-layer="1000" from-port="0" to-layer="1001" to-port="1" />
		<edge from-layer="1001" from-port="2" to-layer="1008" to-port="0" />
		<edge from-layer="1002" from-port="2" to-layer="1004" to-port="0" />
		<edge from-layer="1003" from-port="0" to-layer="1004" to-port="1" />
		<edge from-layer="1004" from-port="2" to-layer="1007" to-port="0" />
		<edge from-layer="1005" from-port="0" to-layer="1007" to-port="1" />
		<edge from-layer="1006" from-port="0" to-layer="1007" to-port="2" />
		<edge from-layer="1007" from-port="3" to-layer="1012" to-port="1" />
		<edge from-layer="1007" from-port="3" to-layer="1009" to-port="1" />
		<edge from-layer="1007" from-port="3" to-layer="1008" to-port="1" />
		<edge from-layer="1008" from-port="2" to-layer="1010" to-port="0" />
		<edge from-layer="1009" from-port="2" to-layer="1010" to-port="1" />
		<edge from-layer="1010" from-port="2" to-layer="1011" to-port="0" />
		<edge from-layer="1011" from-port="1" to-layer="1013" to-port="0" />
		<edge from-layer="1012" from-port="2" to-layer="1013" to-port="1" />
		<edge from-layer="1013" from-port="2" to-layer="1017" to-port="0" />
		<edge from-layer="1014" from-port="0" to-layer="1016" to-port="1" />
		<edge from-layer="1015" from-port="0" to-layer="1016" to-port="3" />
		<edge from-layer="1016" from-port="4" to-layer="1017" to-port="1" />
		<edge from-layer="1017" from-port="2" to-layer="1019" to-port="0" />
		<edge from-layer="1018" from-port="0" to-layer="1019" to-port="1" />
		<edge from-layer="1019" from-port="2" to-layer="1022" to-port="0" />
		<edge from-layer="1020" from-port="0" to-layer="1021" to-port="2" />
		<edge from-layer="1021" from-port="3" to-layer="1022" to-port="1" />
		<edge from-layer="1022" from-port="2" to-layer="1024" to-port="0" />
		<edge from-layer="1023" from-port="0" to-layer="1024" to-port="1" />
		<edge from-layer="1024" from-port="2" to-layer="1026" to-port="0" />
		<edge from-layer="1025" from-port="0" to-layer="1026" to-port="1" />
		<edge from-layer="1026" from-port="2" to-layer="1027" to-port="1" />
		<edge from-layer="1027" from-port="2" to-layer="1029" to-port="0" />
		<edge from-layer="1027" from-port="2" to-layer="1043" to-port="0" />
		<edge from-layer="1028" from-port="0" to-layer="1029" to-port="1" />
		<edge from-layer="1029" from-port="2" to-layer="1031" to-port="0" />
		<edge from-layer="1030" from-port="0" to-layer="1031" to-port="1" />
		<edge from-layer="1031" from-port="2" to-layer="1033" to-port="0" />
		<edge from-layer="1032" from-port="0" to-layer="1033" to-port="1" />
		<edge from-layer="1033" from-port="2" to-layer="1035" to-port="0" />
		<edge from-layer="1034" from-port="0" to-layer="1035" to-port="1" />
		<edge from-layer="1035" from-port="2" to-layer="1037" to-port="0" />
		<edge from-layer="1036" from-port="0" to-layer="1037" to-port="1" />
		<edge from-layer="1037" from-port="2" to-layer="1038" to-port="0" />
		<edge from-layer="1038" from-port="1" to-layer="1040" to-port="0" />
		<edge from-layer="1039" from-port="0" to-layer="1040" to-port="1" />
		<edge from-layer="1040" from-port="2" to-layer="1042" to-port="0" />
		<edge from-layer="1041" from-port="0" to-layer="1042" to-port="1" />
		<edge from-layer="1042" from-port="2" to-layer="1043" to-port="1" />
		<edge from-layer="1043" from-port="2" to-layer="1045" to-port="0" />
		<edge from-layer="1044" from-port="0" to-layer="1045" to-port="1" />
		<edge from-layer="1045" from-port="2" to-layer="1047" to-port="0" />
		<edge from-layer="1046" from-port="0" to-layer="1047" to-port="1" />
		<edge from-layer="1047" from-port="2" to-layer="1049" to-port="0" />
		<edge from-layer="1048" from-port="0" to-layer="1049" to-port="1" />
		<edge from-layer="1049" from-port="2" to-layer="1051" to-port="0" />
		<edge from-layer="1050" from-port="0" to-layer="1051" to-port="1" />
		<edge from-layer="1051" from-port="2" to-layer="1052" to-port="0" />
	</edges>
	<rt_info>
		<Runtime_version value="2023.3.0-13775-ceeafaf64f3-releases/2023/3" />
		<conversion_parameters>
			<framework value="pytorch" />
			<is_python_object value="True" />
		</conversion_parameters>
	</rt_info>
</net>
